_________________________________________________________________
Layer (type)                 Output Shape              Param #   
=================================================================
cu_dnnlstm_319 (CuDNNLSTM)   (None, 1, 50)             13600     
_________________________________________________________________
dropout_247 (Dropout)        (None, 1, 50)             0         
_________________________________________________________________
cu_dnnlstm_320 (CuDNNLSTM)   (None, 1, 100)            60800     
_________________________________________________________________
dropout_248 (Dropout)        (None, 1, 100)            0         
_________________________________________________________________
cu_dnnlstm_321 (CuDNNLSTM)   (None, 100)               80800     
_________________________________________________________________
dense_151 (Dense)            (None, 1)                 101       
_________________________________________________________________
activation_112 (Activation)  (None, 1)                 0         
=================================================================
Total params: 155,301
Trainable params: 155,301
Non-trainable params: 0
_________________________________________________________________
_________________________________________________________________
Layer (type)                 Output Shape              Param #   
=================================================================
cu_dnnlstm_322 (CuDNNLSTM)   (None, 1, 50)             13600     
_________________________________________________________________
dropout_249 (Dropout)        (None, 1, 50)             0         
_________________________________________________________________
cu_dnnlstm_323 (CuDNNLSTM)   (None, 1, 100)            60800     
_________________________________________________________________
dropout_250 (Dropout)        (None, 1, 100)            0         
_________________________________________________________________
cu_dnnlstm_324 (CuDNNLSTM)   (None, 100)               80800     
_________________________________________________________________
dense_152 (Dense)            (None, 1)                 101       
_________________________________________________________________
activation_113 (Activation)  (None, 1)                 0         
=================================================================
Total params: 155,301
Trainable params: 155,301
Non-trainable params: 0
_________________________________________________________________
_________________________________________________________________
Layer (type)                 Output Shape              Param #   
=================================================================
cu_dnnlstm_325 (CuDNNLSTM)   (None, 1, 150)            100800    
_________________________________________________________________
dropout_251 (Dropout)        (None, 1, 150)            0         
_________________________________________________________________
cu_dnnlstm_326 (CuDNNLSTM)   (None, 1, 250)            402000    
_________________________________________________________________
dropout_252 (Dropout)        (None, 1, 250)            0         
_________________________________________________________________
cu_dnnlstm_327 (CuDNNLSTM)   (None, 200)               361600    
_________________________________________________________________
dense_153 (Dense)            (None, 1)                 201       
_________________________________________________________________
activation_114 (Activation)  (None, 1)                 0         
=================================================================
Total params: 864,601
Trainable params: 864,601
Non-trainable params: 0
_________________________________________________________________
_________________________________________________________________
Layer (type)                 Output Shape              Param #   
=================================================================
cu_dnnlstm_328 (CuDNNLSTM)   (None, 1, 150)            100800    
_________________________________________________________________
dropout_253 (Dropout)        (None, 1, 150)            0         
_________________________________________________________________
cu_dnnlstm_329 (CuDNNLSTM)   (None, 1, 300)            542400    
_________________________________________________________________
dropout_254 (Dropout)        (None, 1, 300)            0         
_________________________________________________________________
cu_dnnlstm_330 (CuDNNLSTM)   (None, 1, 200)            401600    
_________________________________________________________________
dropout_255 (Dropout)        (None, 1, 200)            0         
_________________________________________________________________
cu_dnnlstm_331 (CuDNNLSTM)   (None, 450)               1173600   
_________________________________________________________________
dense_154 (Dense)            (None, 1)                 451       
_________________________________________________________________
activation_115 (Activation)  (None, 1)                 0         
=================================================================
Total params: 2,218,851
Trainable params: 2,218,851
Non-trainable params: 0
_________________________________________________________________
_________________________________________________________________
Layer (type)                 Output Shape              Param #   
=================================================================
cu_dnnlstm_332 (CuDNNLSTM)   (None, 1, 150)            100800    
_________________________________________________________________
dropout_256 (Dropout)        (None, 1, 150)            0         
_________________________________________________________________
cu_dnnlstm_333 (CuDNNLSTM)   (None, 1, 300)            542400    
_________________________________________________________________
dropout_257 (Dropout)        (None, 1, 300)            0         
_________________________________________________________________
cu_dnnlstm_334 (CuDNNLSTM)   (None, 1, 200)            401600    
_________________________________________________________________
dropout_258 (Dropout)        (None, 1, 200)            0         
_________________________________________________________________
cu_dnnlstm_335 (CuDNNLSTM)   (None, 450)               1173600   
_________________________________________________________________
dense_155 (Dense)            (None, 1)                 451       
_________________________________________________________________
activation_116 (Activation)  (None, 1)                 0         
=================================================================
Total params: 2,218,851
Trainable params: 2,218,851
Non-trainable params: 0
_________________________________________________________________
_________________________________________________________________
Layer (type)                 Output Shape              Param #   
=================================================================
cu_dnnlstm_336 (CuDNNLSTM)   (None, 1, 250)            268000    
_________________________________________________________________
dropout_259 (Dropout)        (None, 1, 250)            0         
_________________________________________________________________
cu_dnnlstm_337 (CuDNNLSTM)   (None, 1, 200)            361600    
_________________________________________________________________
dropout_260 (Dropout)        (None, 1, 200)            0         
_________________________________________________________________
cu_dnnlstm_338 (CuDNNLSTM)   (None, 300)               602400    
_________________________________________________________________
dense_156 (Dense)            (None, 1)                 301       
_________________________________________________________________
activation_117 (Activation)  (None, 1)                 0         
=================================================================
Total params: 1,232,301
Trainable params: 1,232,301
Non-trainable params: 0
_________________________________________________________________
_________________________________________________________________
Layer (type)                 Output Shape              Param #   
=================================================================
dense_157 (Dense)            (None, 12)                204       
_________________________________________________________________
dense_158 (Dense)            (None, 8)                 104       
_________________________________________________________________
dense_159 (Dense)            (None, 1)                 9         
=================================================================
Total params: 317
Trainable params: 317
Non-trainable params: 0
_________________________________________________________________
_________________________________________________________________
Layer (type)                 Output Shape              Param #   
=================================================================
cu_dnnlstm_339 (CuDNNLSTM)   (None, 1, 50)             13600     
_________________________________________________________________
dropout_261 (Dropout)        (None, 1, 50)             0         
_________________________________________________________________
cu_dnnlstm_340 (CuDNNLSTM)   (None, 100)               60800     
_________________________________________________________________
dropout_262 (Dropout)        (None, 100)               0         
_________________________________________________________________
dense_160 (Dense)            (None, 1)                 101       
_________________________________________________________________
activation_118 (Activation)  (None, 1)                 0         
=================================================================
Total params: 74,501
Trainable params: 74,501
Non-trainable params: 0
_________________________________________________________________
_________________________________________________________________
Layer (type)                 Output Shape              Param #   
=================================================================
cu_dnnlstm_341 (CuDNNLSTM)   (None, 1, 50)             13600     
_________________________________________________________________
dropout_263 (Dropout)        (None, 1, 50)             0         
_________________________________________________________________
cu_dnnlstm_342 (CuDNNLSTM)   (None, 100)               60800     
_________________________________________________________________
dropout_264 (Dropout)        (None, 100)               0         
_________________________________________________________________
dense_161 (Dense)            (None, 1)                 101       
_________________________________________________________________
activation_119 (Activation)  (None, 1)                 0         
=================================================================
Total params: 74,501
Trainable params: 74,501
Non-trainable params: 0
_________________________________________________________________
_________________________________________________________________
Layer (type)                 Output Shape              Param #   
=================================================================
cu_dnnlstm_343 (CuDNNLSTM)   (None, 1, 50)             13600     
_________________________________________________________________
dropout_265 (Dropout)        (None, 1, 50)             0         
_________________________________________________________________
cu_dnnlstm_344 (CuDNNLSTM)   (None, 100)               60800     
_________________________________________________________________
dropout_266 (Dropout)        (None, 100)               0         
_________________________________________________________________
dense_162 (Dense)            (None, 1)                 101       
_________________________________________________________________
activation_120 (Activation)  (None, 1)                 0         
=================================================================
Total params: 74,501
Trainable params: 74,501
Non-trainable params: 0
_________________________________________________________________
_________________________________________________________________
Layer (type)                 Output Shape              Param #   
=================================================================
cu_dnnlstm_345 (CuDNNLSTM)   (None, 1, 50)             13600     
_________________________________________________________________
dropout_267 (Dropout)        (None, 1, 50)             0         
_________________________________________________________________
cu_dnnlstm_346 (CuDNNLSTM)   (None, 1, 100)            60800     
_________________________________________________________________
dropout_268 (Dropout)        (None, 1, 100)            0         
_________________________________________________________________
cu_dnnlstm_347 (CuDNNLSTM)   (None, 100)               80800     
_________________________________________________________________
dense_163 (Dense)            (None, 1)                 101       
_________________________________________________________________
activation_121 (Activation)  (None, 1)                 0         
=================================================================
Total params: 155,301
Trainable params: 155,301
Non-trainable params: 0
_________________________________________________________________
_________________________________________________________________
Layer (type)                 Output Shape              Param #   
=================================================================
cu_dnnlstm_348 (CuDNNLSTM)   (None, 1, 50)             13600     
_________________________________________________________________
dropout_269 (Dropout)        (None, 1, 50)             0         
_________________________________________________________________
cu_dnnlstm_349 (CuDNNLSTM)   (None, 1, 100)            60800     
_________________________________________________________________
dropout_270 (Dropout)        (None, 1, 100)            0         
_________________________________________________________________
cu_dnnlstm_350 (CuDNNLSTM)   (None, 100)               80800     
_________________________________________________________________
dense_164 (Dense)            (None, 1)                 101       
_________________________________________________________________
activation_122 (Activation)  (None, 1)                 0         
=================================================================
Total params: 155,301
Trainable params: 155,301
Non-trainable params: 0
_________________________________________________________________
_________________________________________________________________
Layer (type)                 Output Shape              Param #   
=================================================================
cu_dnnlstm_351 (CuDNNLSTM)   (None, 1, 150)            100800    
_________________________________________________________________
dropout_271 (Dropout)        (None, 1, 150)            0         
_________________________________________________________________
cu_dnnlstm_352 (CuDNNLSTM)   (None, 1, 250)            402000    
_________________________________________________________________
dropout_272 (Dropout)        (None, 1, 250)            0         
_________________________________________________________________
cu_dnnlstm_353 (CuDNNLSTM)   (None, 200)               361600    
_________________________________________________________________
dense_165 (Dense)            (None, 1)                 201       
_________________________________________________________________
activation_123 (Activation)  (None, 1)                 0         
=================================================================
Total params: 864,601
Trainable params: 864,601
Non-trainable params: 0
_________________________________________________________________
_________________________________________________________________
Layer (type)                 Output Shape              Param #   
=================================================================
cu_dnnlstm_354 (CuDNNLSTM)   (None, 1, 150)            100800    
_________________________________________________________________
dropout_273 (Dropout)        (None, 1, 150)            0         
_________________________________________________________________
cu_dnnlstm_355 (CuDNNLSTM)   (None, 1, 300)            542400    
_________________________________________________________________
dropout_274 (Dropout)        (None, 1, 300)            0         
_________________________________________________________________
cu_dnnlstm_356 (CuDNNLSTM)   (None, 1, 200)            401600    
_________________________________________________________________
dropout_275 (Dropout)        (None, 1, 200)            0         
_________________________________________________________________
cu_dnnlstm_357 (CuDNNLSTM)   (None, 450)               1173600   
_________________________________________________________________
dense_166 (Dense)            (None, 1)                 451       
_________________________________________________________________
activation_124 (Activation)  (None, 1)                 0         
=================================================================
Total params: 2,218,851
Trainable params: 2,218,851
Non-trainable params: 0
_________________________________________________________________
_________________________________________________________________
Layer (type)                 Output Shape              Param #   
=================================================================
cu_dnnlstm_358 (CuDNNLSTM)   (None, 1, 150)            100800    
_________________________________________________________________
dropout_276 (Dropout)        (None, 1, 150)            0         
_________________________________________________________________
cu_dnnlstm_359 (CuDNNLSTM)   (None, 1, 300)            542400    
_________________________________________________________________
dropout_277 (Dropout)        (None, 1, 300)            0         
_________________________________________________________________
cu_dnnlstm_360 (CuDNNLSTM)   (None, 1, 200)            401600    
_________________________________________________________________
dropout_278 (Dropout)        (None, 1, 200)            0         
_________________________________________________________________
cu_dnnlstm_361 (CuDNNLSTM)   (None, 450)               1173600   
_________________________________________________________________
dense_167 (Dense)            (None, 1)                 451       
_________________________________________________________________
activation_125 (Activation)  (None, 1)                 0         
=================================================================
Total params: 2,218,851
Trainable params: 2,218,851
Non-trainable params: 0
_________________________________________________________________
_________________________________________________________________
Layer (type)                 Output Shape              Param #   
=================================================================
cu_dnnlstm_362 (CuDNNLSTM)   (None, 1, 250)            268000    
_________________________________________________________________
dropout_279 (Dropout)        (None, 1, 250)            0         
_________________________________________________________________
cu_dnnlstm_363 (CuDNNLSTM)   (None, 1, 200)            361600    
_________________________________________________________________
dropout_280 (Dropout)        (None, 1, 200)            0         
_________________________________________________________________
cu_dnnlstm_364 (CuDNNLSTM)   (None, 300)               602400    
_________________________________________________________________
dense_168 (Dense)            (None, 1)                 301       
_________________________________________________________________
activation_126 (Activation)  (None, 1)                 0         
=================================================================
Total params: 1,232,301
Trainable params: 1,232,301
Non-trainable params: 0
_________________________________________________________________
_________________________________________________________________
Layer (type)                 Output Shape              Param #   
=================================================================
dense_169 (Dense)            (None, 12)                204       
_________________________________________________________________
dense_170 (Dense)            (None, 8)                 104       
_________________________________________________________________
dense_171 (Dense)            (None, 1)                 9         
=================================================================
Total params: 317
Trainable params: 317
Non-trainable params: 0
_________________________________________________________________
_________________________________________________________________
Layer (type)                 Output Shape              Param #   
=================================================================
cu_dnnlstm_365 (CuDNNLSTM)   (None, 1, 50)             13600     
_________________________________________________________________
dropout_281 (Dropout)        (None, 1, 50)             0         
_________________________________________________________________
cu_dnnlstm_366 (CuDNNLSTM)   (None, 100)               60800     
_________________________________________________________________
dropout_282 (Dropout)        (None, 100)               0         
_________________________________________________________________
dense_172 (Dense)            (None, 1)                 101       
_________________________________________________________________
activation_127 (Activation)  (None, 1)                 0         
=================================================================
Total params: 74,501
Trainable params: 74,501
Non-trainable params: 0
_________________________________________________________________
_________________________________________________________________
Layer (type)                 Output Shape              Param #   
=================================================================
cu_dnnlstm_367 (CuDNNLSTM)   (None, 1, 50)             13600     
_________________________________________________________________
dropout_283 (Dropout)        (None, 1, 50)             0         
_________________________________________________________________
cu_dnnlstm_368 (CuDNNLSTM)   (None, 100)               60800     
_________________________________________________________________
dropout_284 (Dropout)        (None, 100)               0         
_________________________________________________________________
dense_173 (Dense)            (None, 1)                 101       
_________________________________________________________________
activation_128 (Activation)  (None, 1)                 0         
=================================================================
Total params: 74,501
Trainable params: 74,501
Non-trainable params: 0
_________________________________________________________________
_________________________________________________________________
Layer (type)                 Output Shape              Param #   
=================================================================
cu_dnnlstm_369 (CuDNNLSTM)   (None, 1, 50)             13600     
_________________________________________________________________
dropout_285 (Dropout)        (None, 1, 50)             0         
_________________________________________________________________
cu_dnnlstm_370 (CuDNNLSTM)   (None, 100)               60800     
_________________________________________________________________
dropout_286 (Dropout)        (None, 100)               0         
_________________________________________________________________
dense_174 (Dense)            (None, 1)                 101       
_________________________________________________________________
activation_129 (Activation)  (None, 1)                 0         
=================================================================
Total params: 74,501
Trainable params: 74,501
Non-trainable params: 0
_________________________________________________________________
_________________________________________________________________
Layer (type)                 Output Shape              Param #   
=================================================================
cu_dnnlstm_371 (CuDNNLSTM)   (None, 1, 50)             13600     
_________________________________________________________________
dropout_287 (Dropout)        (None, 1, 50)             0         
_________________________________________________________________
cu_dnnlstm_372 (CuDNNLSTM)   (None, 1, 100)            60800     
_________________________________________________________________
dropout_288 (Dropout)        (None, 1, 100)            0         
_________________________________________________________________
cu_dnnlstm_373 (CuDNNLSTM)   (None, 100)               80800     
_________________________________________________________________
dense_175 (Dense)            (None, 1)                 101       
_________________________________________________________________
activation_130 (Activation)  (None, 1)                 0         
=================================================================
Total params: 155,301
Trainable params: 155,301
Non-trainable params: 0
_________________________________________________________________
_________________________________________________________________
Layer (type)                 Output Shape              Param #   
=================================================================
cu_dnnlstm_374 (CuDNNLSTM)   (None, 1, 50)             13600     
_________________________________________________________________
dropout_289 (Dropout)        (None, 1, 50)             0         
_________________________________________________________________
cu_dnnlstm_375 (CuDNNLSTM)   (None, 1, 100)            60800     
_________________________________________________________________
dropout_290 (Dropout)        (None, 1, 100)            0         
_________________________________________________________________
cu_dnnlstm_376 (CuDNNLSTM)   (None, 100)               80800     
_________________________________________________________________
dense_176 (Dense)            (None, 1)                 101       
_________________________________________________________________
activation_131 (Activation)  (None, 1)                 0         
=================================================================
Total params: 155,301
Trainable params: 155,301
Non-trainable params: 0
_________________________________________________________________
_________________________________________________________________
Layer (type)                 Output Shape              Param #   
=================================================================
cu_dnnlstm_377 (CuDNNLSTM)   (None, 1, 150)            100800    
_________________________________________________________________
dropout_291 (Dropout)        (None, 1, 150)            0         
_________________________________________________________________
cu_dnnlstm_378 (CuDNNLSTM)   (None, 1, 250)            402000    
_________________________________________________________________
dropout_292 (Dropout)        (None, 1, 250)            0         
_________________________________________________________________
cu_dnnlstm_379 (CuDNNLSTM)   (None, 200)               361600    
_________________________________________________________________
dense_177 (Dense)            (None, 1)                 201       
_________________________________________________________________
activation_132 (Activation)  (None, 1)                 0         
=================================================================
Total params: 864,601
Trainable params: 864,601
Non-trainable params: 0
_________________________________________________________________
_________________________________________________________________
Layer (type)                 Output Shape              Param #   
=================================================================
cu_dnnlstm_380 (CuDNNLSTM)   (None, 1, 150)            100800    
_________________________________________________________________
dropout_293 (Dropout)        (None, 1, 150)            0         
_________________________________________________________________
cu_dnnlstm_381 (CuDNNLSTM)   (None, 1, 300)            542400    
_________________________________________________________________
dropout_294 (Dropout)        (None, 1, 300)            0         
_________________________________________________________________
cu_dnnlstm_382 (CuDNNLSTM)   (None, 1, 200)            401600    
_________________________________________________________________
dropout_295 (Dropout)        (None, 1, 200)            0         
_________________________________________________________________
cu_dnnlstm_383 (CuDNNLSTM)   (None, 450)               1173600   
_________________________________________________________________
dense_178 (Dense)            (None, 1)                 451       
_________________________________________________________________
activation_133 (Activation)  (None, 1)                 0         
=================================================================
Total params: 2,218,851
Trainable params: 2,218,851
Non-trainable params: 0
_________________________________________________________________
_________________________________________________________________
Layer (type)                 Output Shape              Param #   
=================================================================
cu_dnnlstm_384 (CuDNNLSTM)   (None, 1, 150)            100800    
_________________________________________________________________
dropout_296 (Dropout)        (None, 1, 150)            0         
_________________________________________________________________
cu_dnnlstm_385 (CuDNNLSTM)   (None, 1, 300)            542400    
_________________________________________________________________
dropout_297 (Dropout)        (None, 1, 300)            0         
_________________________________________________________________
cu_dnnlstm_386 (CuDNNLSTM)   (None, 1, 200)            401600    
_________________________________________________________________
dropout_298 (Dropout)        (None, 1, 200)            0         
_________________________________________________________________
cu_dnnlstm_387 (CuDNNLSTM)   (None, 450)               1173600   
_________________________________________________________________
dense_179 (Dense)            (None, 1)                 451       
_________________________________________________________________
activation_134 (Activation)  (None, 1)                 0         
=================================================================
Total params: 2,218,851
Trainable params: 2,218,851
Non-trainable params: 0
_________________________________________________________________
_________________________________________________________________
Layer (type)                 Output Shape              Param #   
=================================================================
cu_dnnlstm_388 (CuDNNLSTM)   (None, 1, 250)            268000    
_________________________________________________________________
dropout_299 (Dropout)        (None, 1, 250)            0         
_________________________________________________________________
cu_dnnlstm_389 (CuDNNLSTM)   (None, 1, 200)            361600    
_________________________________________________________________
dropout_300 (Dropout)        (None, 1, 200)            0         
_________________________________________________________________
cu_dnnlstm_390 (CuDNNLSTM)   (None, 300)               602400    
_________________________________________________________________
dense_180 (Dense)            (None, 1)                 301       
_________________________________________________________________
activation_135 (Activation)  (None, 1)                 0         
=================================================================
Total params: 1,232,301
Trainable params: 1,232,301
Non-trainable params: 0
_________________________________________________________________
_________________________________________________________________
Layer (type)                 Output Shape              Param #   
=================================================================
dense_181 (Dense)            (None, 12)                204       
_________________________________________________________________
dense_182 (Dense)            (None, 8)                 104       
_________________________________________________________________
dense_183 (Dense)            (None, 1)                 9         
=================================================================
Total params: 317
Trainable params: 317
Non-trainable params: 0
_________________________________________________________________
_________________________________________________________________
Layer (type)                 Output Shape              Param #   
=================================================================
cu_dnnlstm_391 (CuDNNLSTM)   (None, 1, 50)             13600     
_________________________________________________________________
dropout_301 (Dropout)        (None, 1, 50)             0         
_________________________________________________________________
cu_dnnlstm_392 (CuDNNLSTM)   (None, 100)               60800     
_________________________________________________________________
dropout_302 (Dropout)        (None, 100)               0         
_________________________________________________________________
dense_184 (Dense)            (None, 1)                 101       
_________________________________________________________________
activation_136 (Activation)  (None, 1)                 0         
=================================================================
Total params: 74,501
Trainable params: 74,501
Non-trainable params: 0
_________________________________________________________________
_________________________________________________________________
Layer (type)                 Output Shape              Param #   
=================================================================
cu_dnnlstm_393 (CuDNNLSTM)   (None, 1, 50)             13600     
_________________________________________________________________
dropout_303 (Dropout)        (None, 1, 50)             0         
_________________________________________________________________
cu_dnnlstm_394 (CuDNNLSTM)   (None, 100)               60800     
_________________________________________________________________
dropout_304 (Dropout)        (None, 100)               0         
_________________________________________________________________
dense_185 (Dense)            (None, 1)                 101       
_________________________________________________________________
activation_137 (Activation)  (None, 1)                 0         
=================================================================
Total params: 74,501
Trainable params: 74,501
Non-trainable params: 0
_________________________________________________________________
_________________________________________________________________
Layer (type)                 Output Shape              Param #   
=================================================================
cu_dnnlstm_395 (CuDNNLSTM)   (None, 1, 50)             13600     
_________________________________________________________________
dropout_305 (Dropout)        (None, 1, 50)             0         
_________________________________________________________________
cu_dnnlstm_396 (CuDNNLSTM)   (None, 100)               60800     
_________________________________________________________________
dropout_306 (Dropout)        (None, 100)               0         
_________________________________________________________________
dense_186 (Dense)            (None, 1)                 101       
_________________________________________________________________
activation_138 (Activation)  (None, 1)                 0         
=================================================================
Total params: 74,501
Trainable params: 74,501
Non-trainable params: 0
_________________________________________________________________
_________________________________________________________________
Layer (type)                 Output Shape              Param #   
=================================================================
cu_dnnlstm_397 (CuDNNLSTM)   (None, 1, 50)             13600     
_________________________________________________________________
dropout_307 (Dropout)        (None, 1, 50)             0         
_________________________________________________________________
cu_dnnlstm_398 (CuDNNLSTM)   (None, 1, 100)            60800     
_________________________________________________________________
dropout_308 (Dropout)        (None, 1, 100)            0         
_________________________________________________________________
cu_dnnlstm_399 (CuDNNLSTM)   (None, 100)               80800     
_________________________________________________________________
dense_187 (Dense)            (None, 1)                 101       
_________________________________________________________________
activation_139 (Activation)  (None, 1)                 0         
=================================================================
Total params: 155,301
Trainable params: 155,301
Non-trainable params: 0
_________________________________________________________________
_________________________________________________________________
Layer (type)                 Output Shape              Param #   
=================================================================
cu_dnnlstm_400 (CuDNNLSTM)   (None, 1, 50)             13600     
_________________________________________________________________
dropout_309 (Dropout)        (None, 1, 50)             0         
_________________________________________________________________
cu_dnnlstm_401 (CuDNNLSTM)   (None, 1, 100)            60800     
_________________________________________________________________
dropout_310 (Dropout)        (None, 1, 100)            0         
_________________________________________________________________
cu_dnnlstm_402 (CuDNNLSTM)   (None, 100)               80800     
_________________________________________________________________
dense_188 (Dense)            (None, 1)                 101       
_________________________________________________________________
activation_140 (Activation)  (None, 1)                 0         
=================================================================
Total params: 155,301
Trainable params: 155,301
Non-trainable params: 0
_________________________________________________________________
_________________________________________________________________
Layer (type)                 Output Shape              Param #   
=================================================================
cu_dnnlstm_403 (CuDNNLSTM)   (None, 1, 150)            100800    
_________________________________________________________________
dropout_311 (Dropout)        (None, 1, 150)            0         
_________________________________________________________________
cu_dnnlstm_404 (CuDNNLSTM)   (None, 1, 250)            402000    
_________________________________________________________________
dropout_312 (Dropout)        (None, 1, 250)            0         
_________________________________________________________________
cu_dnnlstm_405 (CuDNNLSTM)   (None, 200)               361600    
_________________________________________________________________
dense_189 (Dense)            (None, 1)                 201       
_________________________________________________________________
activation_141 (Activation)  (None, 1)                 0         
=================================================================
Total params: 864,601
Trainable params: 864,601
Non-trainable params: 0
_________________________________________________________________
_________________________________________________________________
Layer (type)                 Output Shape              Param #   
=================================================================
cu_dnnlstm_406 (CuDNNLSTM)   (None, 1, 150)            100800    
_________________________________________________________________
dropout_313 (Dropout)        (None, 1, 150)            0         
_________________________________________________________________
cu_dnnlstm_407 (CuDNNLSTM)   (None, 1, 300)            542400    
_________________________________________________________________
dropout_314 (Dropout)        (None, 1, 300)            0         
_________________________________________________________________
cu_dnnlstm_408 (CuDNNLSTM)   (None, 1, 200)            401600    
_________________________________________________________________
dropout_315 (Dropout)        (None, 1, 200)            0         
_________________________________________________________________
cu_dnnlstm_409 (CuDNNLSTM)   (None, 450)               1173600   
_________________________________________________________________
dense_190 (Dense)            (None, 1)                 451       
_________________________________________________________________
activation_142 (Activation)  (None, 1)                 0         
=================================================================
Total params: 2,218,851
Trainable params: 2,218,851
Non-trainable params: 0
_________________________________________________________________
_________________________________________________________________
Layer (type)                 Output Shape              Param #   
=================================================================
cu_dnnlstm_410 (CuDNNLSTM)   (None, 1, 150)            100800    
_________________________________________________________________
dropout_316 (Dropout)        (None, 1, 150)            0         
_________________________________________________________________
cu_dnnlstm_411 (CuDNNLSTM)   (None, 1, 300)            542400    
_________________________________________________________________
dropout_317 (Dropout)        (None, 1, 300)            0         
_________________________________________________________________
cu_dnnlstm_412 (CuDNNLSTM)   (None, 1, 200)            401600    
_________________________________________________________________
dropout_318 (Dropout)        (None, 1, 200)            0         
_________________________________________________________________
cu_dnnlstm_413 (CuDNNLSTM)   (None, 450)               1173600   
_________________________________________________________________
dense_191 (Dense)            (None, 1)                 451       
_________________________________________________________________
activation_143 (Activation)  (None, 1)                 0         
=================================================================
Total params: 2,218,851
Trainable params: 2,218,851
Non-trainable params: 0
_________________________________________________________________
_________________________________________________________________
Layer (type)                 Output Shape              Param #   
=================================================================
cu_dnnlstm_414 (CuDNNLSTM)   (None, 1, 250)            268000    
_________________________________________________________________
dropout_319 (Dropout)        (None, 1, 250)            0         
_________________________________________________________________
cu_dnnlstm_415 (CuDNNLSTM)   (None, 1, 200)            361600    
_________________________________________________________________
dropout_320 (Dropout)        (None, 1, 200)            0         
_________________________________________________________________
cu_dnnlstm_416 (CuDNNLSTM)   (None, 300)               602400    
_________________________________________________________________
dense_192 (Dense)            (None, 1)                 301       
_________________________________________________________________
activation_144 (Activation)  (None, 1)                 0         
=================================================================
Total params: 1,232,301
Trainable params: 1,232,301
Non-trainable params: 0
_________________________________________________________________
_________________________________________________________________
Layer (type)                 Output Shape              Param #   
=================================================================
dense_193 (Dense)            (None, 12)                204       
_________________________________________________________________
dense_194 (Dense)            (None, 8)                 104       
_________________________________________________________________
dense_195 (Dense)            (None, 1)                 9         
=================================================================
Total params: 317
Trainable params: 317
Non-trainable params: 0
_________________________________________________________________
_________________________________________________________________
Layer (type)                 Output Shape              Param #   
=================================================================
cu_dnnlstm_417 (CuDNNLSTM)   (None, 1, 50)             13600     
_________________________________________________________________
dropout_321 (Dropout)        (None, 1, 50)             0         
_________________________________________________________________
cu_dnnlstm_418 (CuDNNLSTM)   (None, 100)               60800     
_________________________________________________________________
dropout_322 (Dropout)        (None, 100)               0         
_________________________________________________________________
dense_196 (Dense)            (None, 1)                 101       
_________________________________________________________________
activation_145 (Activation)  (None, 1)                 0         
=================================================================
Total params: 74,501
Trainable params: 74,501
Non-trainable params: 0
_________________________________________________________________
_________________________________________________________________
Layer (type)                 Output Shape              Param #   
=================================================================
cu_dnnlstm_419 (CuDNNLSTM)   (None, 1, 50)             13600     
_________________________________________________________________
dropout_323 (Dropout)        (None, 1, 50)             0         
_________________________________________________________________
cu_dnnlstm_420 (CuDNNLSTM)   (None, 100)               60800     
_________________________________________________________________
dropout_324 (Dropout)        (None, 100)               0         
_________________________________________________________________
dense_197 (Dense)            (None, 1)                 101       
_________________________________________________________________
activation_146 (Activation)  (None, 1)                 0         
=================================================================
Total params: 74,501
Trainable params: 74,501
Non-trainable params: 0
_________________________________________________________________
_________________________________________________________________
Layer (type)                 Output Shape              Param #   
=================================================================
cu_dnnlstm_421 (CuDNNLSTM)   (None, 1, 50)             13600     
_________________________________________________________________
dropout_325 (Dropout)        (None, 1, 50)             0         
_________________________________________________________________
cu_dnnlstm_422 (CuDNNLSTM)   (None, 100)               60800     
_________________________________________________________________
dropout_326 (Dropout)        (None, 100)               0         
_________________________________________________________________
dense_198 (Dense)            (None, 1)                 101       
_________________________________________________________________
activation_147 (Activation)  (None, 1)                 0         
=================================================================
Total params: 74,501
Trainable params: 74,501
Non-trainable params: 0
_________________________________________________________________
_________________________________________________________________
Layer (type)                 Output Shape              Param #   
=================================================================
cu_dnnlstm_423 (CuDNNLSTM)   (None, 1, 50)             13600     
_________________________________________________________________
dropout_327 (Dropout)        (None, 1, 50)             0         
_________________________________________________________________
cu_dnnlstm_424 (CuDNNLSTM)   (None, 1, 100)            60800     
_________________________________________________________________
dropout_328 (Dropout)        (None, 1, 100)            0         
_________________________________________________________________
cu_dnnlstm_425 (CuDNNLSTM)   (None, 100)               80800     
_________________________________________________________________
dense_199 (Dense)            (None, 1)                 101       
_________________________________________________________________
activation_148 (Activation)  (None, 1)                 0         
=================================================================
Total params: 155,301
Trainable params: 155,301
Non-trainable params: 0
_________________________________________________________________
_________________________________________________________________
Layer (type)                 Output Shape              Param #   
=================================================================
cu_dnnlstm_426 (CuDNNLSTM)   (None, 1, 50)             13600     
_________________________________________________________________
dropout_329 (Dropout)        (None, 1, 50)             0         
_________________________________________________________________
cu_dnnlstm_427 (CuDNNLSTM)   (None, 1, 100)            60800     
_________________________________________________________________
dropout_330 (Dropout)        (None, 1, 100)            0         
_________________________________________________________________
cu_dnnlstm_428 (CuDNNLSTM)   (None, 100)               80800     
_________________________________________________________________
dense_200 (Dense)            (None, 1)                 101       
_________________________________________________________________
activation_149 (Activation)  (None, 1)                 0         
=================================================================
Total params: 155,301
Trainable params: 155,301
Non-trainable params: 0
_________________________________________________________________
_________________________________________________________________
Layer (type)                 Output Shape              Param #   
=================================================================
cu_dnnlstm_429 (CuDNNLSTM)   (None, 1, 150)            100800    
_________________________________________________________________
dropout_331 (Dropout)        (None, 1, 150)            0         
_________________________________________________________________
cu_dnnlstm_430 (CuDNNLSTM)   (None, 1, 250)            402000    
_________________________________________________________________
dropout_332 (Dropout)        (None, 1, 250)            0         
_________________________________________________________________
cu_dnnlstm_431 (CuDNNLSTM)   (None, 200)               361600    
_________________________________________________________________
dense_201 (Dense)            (None, 1)                 201       
_________________________________________________________________
activation_150 (Activation)  (None, 1)                 0         
=================================================================
Total params: 864,601
Trainable params: 864,601
Non-trainable params: 0
_________________________________________________________________
_________________________________________________________________
Layer (type)                 Output Shape              Param #   
=================================================================
cu_dnnlstm_432 (CuDNNLSTM)   (None, 1, 150)            100800    
_________________________________________________________________
dropout_333 (Dropout)        (None, 1, 150)            0         
_________________________________________________________________
cu_dnnlstm_433 (CuDNNLSTM)   (None, 1, 300)            542400    
_________________________________________________________________
dropout_334 (Dropout)        (None, 1, 300)            0         
_________________________________________________________________
cu_dnnlstm_434 (CuDNNLSTM)   (None, 1, 200)            401600    
_________________________________________________________________
dropout_335 (Dropout)        (None, 1, 200)            0         
_________________________________________________________________
cu_dnnlstm_435 (CuDNNLSTM)   (None, 450)               1173600   
_________________________________________________________________
dense_202 (Dense)            (None, 1)                 451       
_________________________________________________________________
activation_151 (Activation)  (None, 1)                 0         
=================================================================
Total params: 2,218,851
Trainable params: 2,218,851
Non-trainable params: 0
_________________________________________________________________
_________________________________________________________________
Layer (type)                 Output Shape              Param #   
=================================================================
cu_dnnlstm_436 (CuDNNLSTM)   (None, 1, 150)            100800    
_________________________________________________________________
dropout_336 (Dropout)        (None, 1, 150)            0         
_________________________________________________________________
cu_dnnlstm_437 (CuDNNLSTM)   (None, 1, 300)            542400    
_________________________________________________________________
dropout_337 (Dropout)        (None, 1, 300)            0         
_________________________________________________________________
cu_dnnlstm_438 (CuDNNLSTM)   (None, 1, 200)            401600    
_________________________________________________________________
dropout_338 (Dropout)        (None, 1, 200)            0         
_________________________________________________________________
cu_dnnlstm_439 (CuDNNLSTM)   (None, 450)               1173600   
_________________________________________________________________
dense_203 (Dense)            (None, 1)                 451       
_________________________________________________________________
activation_152 (Activation)  (None, 1)                 0         
=================================================================
Total params: 2,218,851
Trainable params: 2,218,851
Non-trainable params: 0
_________________________________________________________________
_________________________________________________________________
Layer (type)                 Output Shape              Param #   
=================================================================
cu_dnnlstm_440 (CuDNNLSTM)   (None, 1, 250)            268000    
_________________________________________________________________
dropout_339 (Dropout)        (None, 1, 250)            0         
_________________________________________________________________
cu_dnnlstm_441 (CuDNNLSTM)   (None, 1, 200)            361600    
_________________________________________________________________
dropout_340 (Dropout)        (None, 1, 200)            0         
_________________________________________________________________
cu_dnnlstm_442 (CuDNNLSTM)   (None, 300)               602400    
_________________________________________________________________
dense_204 (Dense)            (None, 1)                 301       
_________________________________________________________________
activation_153 (Activation)  (None, 1)                 0         
=================================================================
Total params: 1,232,301
Trainable params: 1,232,301
Non-trainable params: 0
_________________________________________________________________
_________________________________________________________________
Layer (type)                 Output Shape              Param #   
=================================================================
dense_205 (Dense)            (None, 12)                204       
_________________________________________________________________
dense_206 (Dense)            (None, 8)                 104       
_________________________________________________________________
dense_207 (Dense)            (None, 1)                 9         
=================================================================
Total params: 317
Trainable params: 317
Non-trainable params: 0
_________________________________________________________________
_________________________________________________________________
Layer (type)                 Output Shape              Param #   
=================================================================
cu_dnnlstm_443 (CuDNNLSTM)   (None, 1, 50)             13600     
_________________________________________________________________
dropout_341 (Dropout)        (None, 1, 50)             0         
_________________________________________________________________
cu_dnnlstm_444 (CuDNNLSTM)   (None, 100)               60800     
_________________________________________________________________
dropout_342 (Dropout)        (None, 100)               0         
_________________________________________________________________
dense_208 (Dense)            (None, 1)                 101       
_________________________________________________________________
activation_154 (Activation)  (None, 1)                 0         
=================================================================
Total params: 74,501
Trainable params: 74,501
Non-trainable params: 0
_________________________________________________________________
_________________________________________________________________
Layer (type)                 Output Shape              Param #   
=================================================================
cu_dnnlstm_445 (CuDNNLSTM)   (None, 1, 50)             13600     
_________________________________________________________________
dropout_343 (Dropout)        (None, 1, 50)             0         
_________________________________________________________________
cu_dnnlstm_446 (CuDNNLSTM)   (None, 100)               60800     
_________________________________________________________________
dropout_344 (Dropout)        (None, 100)               0         
_________________________________________________________________
dense_209 (Dense)            (None, 1)                 101       
_________________________________________________________________
activation_155 (Activation)  (None, 1)                 0         
=================================================================
Total params: 74,501
Trainable params: 74,501
Non-trainable params: 0
_________________________________________________________________
_________________________________________________________________
Layer (type)                 Output Shape              Param #   
=================================================================
cu_dnnlstm_447 (CuDNNLSTM)   (None, 1, 50)             13600     
_________________________________________________________________
dropout_345 (Dropout)        (None, 1, 50)             0         
_________________________________________________________________
cu_dnnlstm_448 (CuDNNLSTM)   (None, 100)               60800     
_________________________________________________________________
dropout_346 (Dropout)        (None, 100)               0         
_________________________________________________________________
dense_210 (Dense)            (None, 1)                 101       
_________________________________________________________________
activation_156 (Activation)  (None, 1)                 0         
=================================================================
Total params: 74,501
Trainable params: 74,501
Non-trainable params: 0
_________________________________________________________________
_________________________________________________________________
Layer (type)                 Output Shape              Param #   
=================================================================
cu_dnnlstm_449 (CuDNNLSTM)   (None, 1, 50)             13600     
_________________________________________________________________
dropout_347 (Dropout)        (None, 1, 50)             0         
_________________________________________________________________
cu_dnnlstm_450 (CuDNNLSTM)   (None, 1, 100)            60800     
_________________________________________________________________
dropout_348 (Dropout)        (None, 1, 100)            0         
_________________________________________________________________
cu_dnnlstm_451 (CuDNNLSTM)   (None, 100)               80800     
_________________________________________________________________
dense_211 (Dense)            (None, 1)                 101       
_________________________________________________________________
activation_157 (Activation)  (None, 1)                 0         
=================================================================
Total params: 155,301
Trainable params: 155,301
Non-trainable params: 0
_________________________________________________________________
_________________________________________________________________
Layer (type)                 Output Shape              Param #   
=================================================================
cu_dnnlstm_452 (CuDNNLSTM)   (None, 1, 50)             13600     
_________________________________________________________________
dropout_349 (Dropout)        (None, 1, 50)             0         
_________________________________________________________________
cu_dnnlstm_453 (CuDNNLSTM)   (None, 1, 100)            60800     
_________________________________________________________________
dropout_350 (Dropout)        (None, 1, 100)            0         
_________________________________________________________________
cu_dnnlstm_454 (CuDNNLSTM)   (None, 100)               80800     
_________________________________________________________________
dense_212 (Dense)            (None, 1)                 101       
_________________________________________________________________
activation_158 (Activation)  (None, 1)                 0         
=================================================================
Total params: 155,301
Trainable params: 155,301
Non-trainable params: 0
_________________________________________________________________
_________________________________________________________________
Layer (type)                 Output Shape              Param #   
=================================================================
cu_dnnlstm_455 (CuDNNLSTM)   (None, 1, 150)            100800    
_________________________________________________________________
dropout_351 (Dropout)        (None, 1, 150)            0         
_________________________________________________________________
cu_dnnlstm_456 (CuDNNLSTM)   (None, 1, 250)            402000    
_________________________________________________________________
dropout_352 (Dropout)        (None, 1, 250)            0         
_________________________________________________________________
cu_dnnlstm_457 (CuDNNLSTM)   (None, 200)               361600    
_________________________________________________________________
dense_213 (Dense)            (None, 1)                 201       
_________________________________________________________________
activation_159 (Activation)  (None, 1)                 0         
=================================================================
Total params: 864,601
Trainable params: 864,601
Non-trainable params: 0
_________________________________________________________________
_________________________________________________________________
Layer (type)                 Output Shape              Param #   
=================================================================
cu_dnnlstm_458 (CuDNNLSTM)   (None, 1, 150)            100800    
_________________________________________________________________
dropout_353 (Dropout)        (None, 1, 150)            0         
_________________________________________________________________
cu_dnnlstm_459 (CuDNNLSTM)   (None, 1, 300)            542400    
_________________________________________________________________
dropout_354 (Dropout)        (None, 1, 300)            0         
_________________________________________________________________
cu_dnnlstm_460 (CuDNNLSTM)   (None, 1, 200)            401600    
_________________________________________________________________
dropout_355 (Dropout)        (None, 1, 200)            0         
_________________________________________________________________
cu_dnnlstm_461 (CuDNNLSTM)   (None, 450)               1173600   
_________________________________________________________________
dense_214 (Dense)            (None, 1)                 451       
_________________________________________________________________
activation_160 (Activation)  (None, 1)                 0         
=================================================================
Total params: 2,218,851
Trainable params: 2,218,851
Non-trainable params: 0
_________________________________________________________________
_________________________________________________________________
Layer (type)                 Output Shape              Param #   
=================================================================
cu_dnnlstm_462 (CuDNNLSTM)   (None, 1, 150)            100800    
_________________________________________________________________
dropout_356 (Dropout)        (None, 1, 150)            0         
_________________________________________________________________
cu_dnnlstm_463 (CuDNNLSTM)   (None, 1, 300)            542400    
_________________________________________________________________
dropout_357 (Dropout)        (None, 1, 300)            0         
_________________________________________________________________
cu_dnnlstm_464 (CuDNNLSTM)   (None, 1, 200)            401600    
_________________________________________________________________
dropout_358 (Dropout)        (None, 1, 200)            0         
_________________________________________________________________
cu_dnnlstm_465 (CuDNNLSTM)   (None, 450)               1173600   
_________________________________________________________________
dense_215 (Dense)            (None, 1)                 451       
_________________________________________________________________
activation_161 (Activation)  (None, 1)                 0         
=================================================================
Total params: 2,218,851
Trainable params: 2,218,851
Non-trainable params: 0
_________________________________________________________________
_________________________________________________________________
Layer (type)                 Output Shape              Param #   
=================================================================
cu_dnnlstm_466 (CuDNNLSTM)   (None, 1, 250)            268000    
_________________________________________________________________
dropout_359 (Dropout)        (None, 1, 250)            0         
_________________________________________________________________
cu_dnnlstm_467 (CuDNNLSTM)   (None, 1, 200)            361600    
_________________________________________________________________
dropout_360 (Dropout)        (None, 1, 200)            0         
_________________________________________________________________
cu_dnnlstm_468 (CuDNNLSTM)   (None, 300)               602400    
_________________________________________________________________
dense_216 (Dense)            (None, 1)                 301       
_________________________________________________________________
activation_162 (Activation)  (None, 1)                 0         
=================================================================
Total params: 1,232,301
Trainable params: 1,232,301
Non-trainable params: 0
_________________________________________________________________
_________________________________________________________________
Layer (type)                 Output Shape              Param #   
=================================================================
dense_217 (Dense)            (None, 12)                204       
_________________________________________________________________
dense_218 (Dense)            (None, 8)                 104       
_________________________________________________________________
dense_219 (Dense)            (None, 1)                 9         
=================================================================
Total params: 317
Trainable params: 317
Non-trainable params: 0
_________________________________________________________________
_________________________________________________________________
Layer (type)                 Output Shape              Param #   
=================================================================
cu_dnnlstm_469 (CuDNNLSTM)   (None, 1, 50)             13600     
_________________________________________________________________
dropout_361 (Dropout)        (None, 1, 50)             0         
_________________________________________________________________
cu_dnnlstm_470 (CuDNNLSTM)   (None, 100)               60800     
_________________________________________________________________
dropout_362 (Dropout)        (None, 100)               0         
_________________________________________________________________
dense_220 (Dense)            (None, 1)                 101       
_________________________________________________________________
activation_163 (Activation)  (None, 1)                 0         
=================================================================
Total params: 74,501
Trainable params: 74,501
Non-trainable params: 0
_________________________________________________________________
_________________________________________________________________
Layer (type)                 Output Shape              Param #   
=================================================================
cu_dnnlstm_471 (CuDNNLSTM)   (None, 1, 50)             13600     
_________________________________________________________________
dropout_363 (Dropout)        (None, 1, 50)             0         
_________________________________________________________________
cu_dnnlstm_472 (CuDNNLSTM)   (None, 100)               60800     
_________________________________________________________________
dropout_364 (Dropout)        (None, 100)               0         
_________________________________________________________________
dense_221 (Dense)            (None, 1)                 101       
_________________________________________________________________
activation_164 (Activation)  (None, 1)                 0         
=================================================================
Total params: 74,501
Trainable params: 74,501
Non-trainable params: 0
_________________________________________________________________
_________________________________________________________________
Layer (type)                 Output Shape              Param #   
=================================================================
cu_dnnlstm_473 (CuDNNLSTM)   (None, 1, 50)             13600     
_________________________________________________________________
dropout_365 (Dropout)        (None, 1, 50)             0         
_________________________________________________________________
cu_dnnlstm_474 (CuDNNLSTM)   (None, 100)               60800     
_________________________________________________________________
dropout_366 (Dropout)        (None, 100)               0         
_________________________________________________________________
dense_222 (Dense)            (None, 1)                 101       
_________________________________________________________________
activation_165 (Activation)  (None, 1)                 0         
=================================================================
Total params: 74,501
Trainable params: 74,501
Non-trainable params: 0
_________________________________________________________________
_________________________________________________________________
Layer (type)                 Output Shape              Param #   
=================================================================
cu_dnnlstm_475 (CuDNNLSTM)   (None, 1, 50)             13600     
_________________________________________________________________
dropout_367 (Dropout)        (None, 1, 50)             0         
_________________________________________________________________
cu_dnnlstm_476 (CuDNNLSTM)   (None, 1, 100)            60800     
_________________________________________________________________
dropout_368 (Dropout)        (None, 1, 100)            0         
_________________________________________________________________
cu_dnnlstm_477 (CuDNNLSTM)   (None, 100)               80800     
_________________________________________________________________
dense_223 (Dense)            (None, 1)                 101       
_________________________________________________________________
activation_166 (Activation)  (None, 1)                 0         
=================================================================
Total params: 155,301
Trainable params: 155,301
Non-trainable params: 0
_________________________________________________________________
_________________________________________________________________
Layer (type)                 Output Shape              Param #   
=================================================================
cu_dnnlstm_478 (CuDNNLSTM)   (None, 1, 50)             13600     
_________________________________________________________________
dropout_369 (Dropout)        (None, 1, 50)             0         
_________________________________________________________________
cu_dnnlstm_479 (CuDNNLSTM)   (None, 1, 100)            60800     
_________________________________________________________________
dropout_370 (Dropout)        (None, 1, 100)            0         
_________________________________________________________________
cu_dnnlstm_480 (CuDNNLSTM)   (None, 100)               80800     
_________________________________________________________________
dense_224 (Dense)            (None, 1)                 101       
_________________________________________________________________
activation_167 (Activation)  (None, 1)                 0         
=================================================================
Total params: 155,301
Trainable params: 155,301
Non-trainable params: 0
_________________________________________________________________
_________________________________________________________________
Layer (type)                 Output Shape              Param #   
=================================================================
cu_dnnlstm_481 (CuDNNLSTM)   (None, 1, 150)            100800    
_________________________________________________________________
dropout_371 (Dropout)        (None, 1, 150)            0         
_________________________________________________________________
cu_dnnlstm_482 (CuDNNLSTM)   (None, 1, 250)            402000    
_________________________________________________________________
dropout_372 (Dropout)        (None, 1, 250)            0         
_________________________________________________________________
cu_dnnlstm_483 (CuDNNLSTM)   (None, 200)               361600    
_________________________________________________________________
dense_225 (Dense)            (None, 1)                 201       
_________________________________________________________________
activation_168 (Activation)  (None, 1)                 0         
=================================================================
Total params: 864,601
Trainable params: 864,601
Non-trainable params: 0
_________________________________________________________________
_________________________________________________________________
Layer (type)                 Output Shape              Param #   
=================================================================
cu_dnnlstm_484 (CuDNNLSTM)   (None, 1, 150)            100800    
_________________________________________________________________
dropout_373 (Dropout)        (None, 1, 150)            0         
_________________________________________________________________
cu_dnnlstm_485 (CuDNNLSTM)   (None, 1, 300)            542400    
_________________________________________________________________
dropout_374 (Dropout)        (None, 1, 300)            0         
_________________________________________________________________
cu_dnnlstm_486 (CuDNNLSTM)   (None, 1, 200)            401600    
_________________________________________________________________
dropout_375 (Dropout)        (None, 1, 200)            0         
_________________________________________________________________
cu_dnnlstm_487 (CuDNNLSTM)   (None, 450)               1173600   
_________________________________________________________________
dense_226 (Dense)            (None, 1)                 451       
_________________________________________________________________
activation_169 (Activation)  (None, 1)                 0         
=================================================================
Total params: 2,218,851
Trainable params: 2,218,851
Non-trainable params: 0
_________________________________________________________________
_________________________________________________________________
Layer (type)                 Output Shape              Param #   
=================================================================
cu_dnnlstm_488 (CuDNNLSTM)   (None, 1, 150)            100800    
_________________________________________________________________
dropout_376 (Dropout)        (None, 1, 150)            0         
_________________________________________________________________
cu_dnnlstm_489 (CuDNNLSTM)   (None, 1, 300)            542400    
_________________________________________________________________
dropout_377 (Dropout)        (None, 1, 300)            0         
_________________________________________________________________
cu_dnnlstm_490 (CuDNNLSTM)   (None, 1, 200)            401600    
_________________________________________________________________
dropout_378 (Dropout)        (None, 1, 200)            0         
_________________________________________________________________
cu_dnnlstm_491 (CuDNNLSTM)   (None, 450)               1173600   
_________________________________________________________________
dense_227 (Dense)            (None, 1)                 451       
_________________________________________________________________
activation_170 (Activation)  (None, 1)                 0         
=================================================================
Total params: 2,218,851
Trainable params: 2,218,851
Non-trainable params: 0
_________________________________________________________________
_________________________________________________________________
Layer (type)                 Output Shape              Param #   
=================================================================
cu_dnnlstm_492 (CuDNNLSTM)   (None, 1, 250)            268000    
_________________________________________________________________
dropout_379 (Dropout)        (None, 1, 250)            0         
_________________________________________________________________
cu_dnnlstm_493 (CuDNNLSTM)   (None, 1, 200)            361600    
_________________________________________________________________
dropout_380 (Dropout)        (None, 1, 200)            0         
_________________________________________________________________
cu_dnnlstm_494 (CuDNNLSTM)   (None, 300)               602400    
_________________________________________________________________
dense_228 (Dense)            (None, 1)                 301       
_________________________________________________________________
activation_171 (Activation)  (None, 1)                 0         
=================================================================
Total params: 1,232,301
Trainable params: 1,232,301
Non-trainable params: 0
_________________________________________________________________
_________________________________________________________________
Layer (type)                 Output Shape              Param #   
=================================================================
dense_1 (Dense)              (None, 12)                204       
_________________________________________________________________
dense_2 (Dense)              (None, 8)                 104       
_________________________________________________________________
dense_3 (Dense)              (None, 1)                 9         
=================================================================
Total params: 317
Trainable params: 317
Non-trainable params: 0
_________________________________________________________________
_________________________________________________________________
Layer (type)                 Output Shape              Param #   
=================================================================
cu_dnnlstm_1 (CuDNNLSTM)     (None, 1, 50)             13600     
_________________________________________________________________
dropout_1 (Dropout)          (None, 1, 50)             0         
_________________________________________________________________
cu_dnnlstm_2 (CuDNNLSTM)     (None, 100)               60800     
_________________________________________________________________
dropout_2 (Dropout)          (None, 100)               0         
_________________________________________________________________
dense_4 (Dense)              (None, 1)                 101       
_________________________________________________________________
activation_1 (Activation)    (None, 1)                 0         
=================================================================
Total params: 74,501
Trainable params: 74,501
Non-trainable params: 0
_________________________________________________________________
_________________________________________________________________
Layer (type)                 Output Shape              Param #   
=================================================================
cu_dnnlstm_3 (CuDNNLSTM)     (None, 1, 50)             13600     
_________________________________________________________________
dropout_3 (Dropout)          (None, 1, 50)             0         
_________________________________________________________________
cu_dnnlstm_4 (CuDNNLSTM)     (None, 100)               60800     
_________________________________________________________________
dropout_4 (Dropout)          (None, 100)               0         
_________________________________________________________________
dense_5 (Dense)              (None, 1)                 101       
_________________________________________________________________
activation_2 (Activation)    (None, 1)                 0         
=================================================================
Total params: 74,501
Trainable params: 74,501
Non-trainable params: 0
_________________________________________________________________
_________________________________________________________________
Layer (type)                 Output Shape              Param #   
=================================================================
cu_dnnlstm_5 (CuDNNLSTM)     (None, 1, 50)             13600     
_________________________________________________________________
dropout_5 (Dropout)          (None, 1, 50)             0         
_________________________________________________________________
cu_dnnlstm_6 (CuDNNLSTM)     (None, 100)               60800     
_________________________________________________________________
dropout_6 (Dropout)          (None, 100)               0         
_________________________________________________________________
dense_6 (Dense)              (None, 1)                 101       
_________________________________________________________________
activation_3 (Activation)    (None, 1)                 0         
=================================================================
Total params: 74,501
Trainable params: 74,501
Non-trainable params: 0
_________________________________________________________________
_________________________________________________________________
Layer (type)                 Output Shape              Param #   
=================================================================
cu_dnnlstm_7 (CuDNNLSTM)     (None, 1, 50)             13600     
_________________________________________________________________
dropout_7 (Dropout)          (None, 1, 50)             0         
_________________________________________________________________
cu_dnnlstm_8 (CuDNNLSTM)     (None, 1, 100)            60800     
_________________________________________________________________
dropout_8 (Dropout)          (None, 1, 100)            0         
_________________________________________________________________
cu_dnnlstm_9 (CuDNNLSTM)     (None, 100)               80800     
_________________________________________________________________
dense_7 (Dense)              (None, 1)                 101       
_________________________________________________________________
activation_4 (Activation)    (None, 1)                 0         
=================================================================
Total params: 155,301
Trainable params: 155,301
Non-trainable params: 0
_________________________________________________________________
_________________________________________________________________
Layer (type)                 Output Shape              Param #   
=================================================================
cu_dnnlstm_10 (CuDNNLSTM)    (None, 1, 50)             13600     
_________________________________________________________________
dropout_9 (Dropout)          (None, 1, 50)             0         
_________________________________________________________________
cu_dnnlstm_11 (CuDNNLSTM)    (None, 1, 100)            60800     
_________________________________________________________________
dropout_10 (Dropout)         (None, 1, 100)            0         
_________________________________________________________________
cu_dnnlstm_12 (CuDNNLSTM)    (None, 100)               80800     
_________________________________________________________________
dense_8 (Dense)              (None, 1)                 101       
_________________________________________________________________
activation_5 (Activation)    (None, 1)                 0         
=================================================================
Total params: 155,301
Trainable params: 155,301
Non-trainable params: 0
_________________________________________________________________
_________________________________________________________________
Layer (type)                 Output Shape              Param #   
=================================================================
cu_dnnlstm_13 (CuDNNLSTM)    (None, 1, 150)            100800    
_________________________________________________________________
dropout_11 (Dropout)         (None, 1, 150)            0         
_________________________________________________________________
cu_dnnlstm_14 (CuDNNLSTM)    (None, 1, 250)            402000    
_________________________________________________________________
dropout_12 (Dropout)         (None, 1, 250)            0         
_________________________________________________________________
cu_dnnlstm_15 (CuDNNLSTM)    (None, 200)               361600    
_________________________________________________________________
dense_9 (Dense)              (None, 1)                 201       
_________________________________________________________________
activation_6 (Activation)    (None, 1)                 0         
=================================================================
Total params: 864,601
Trainable params: 864,601
Non-trainable params: 0
_________________________________________________________________
_________________________________________________________________
Layer (type)                 Output Shape              Param #   
=================================================================
cu_dnnlstm_16 (CuDNNLSTM)    (None, 1, 150)            100800    
_________________________________________________________________
dropout_13 (Dropout)         (None, 1, 150)            0         
_________________________________________________________________
cu_dnnlstm_17 (CuDNNLSTM)    (None, 1, 300)            542400    
_________________________________________________________________
dropout_14 (Dropout)         (None, 1, 300)            0         
_________________________________________________________________
cu_dnnlstm_18 (CuDNNLSTM)    (None, 1, 200)            401600    
_________________________________________________________________
dropout_15 (Dropout)         (None, 1, 200)            0         
_________________________________________________________________
cu_dnnlstm_19 (CuDNNLSTM)    (None, 450)               1173600   
_________________________________________________________________
dense_10 (Dense)             (None, 1)                 451       
_________________________________________________________________
activation_7 (Activation)    (None, 1)                 0         
=================================================================
Total params: 2,218,851
Trainable params: 2,218,851
Non-trainable params: 0
_________________________________________________________________
_________________________________________________________________
Layer (type)                 Output Shape              Param #   
=================================================================
cu_dnnlstm_20 (CuDNNLSTM)    (None, 1, 150)            100800    
_________________________________________________________________
dropout_16 (Dropout)         (None, 1, 150)            0         
_________________________________________________________________
cu_dnnlstm_21 (CuDNNLSTM)    (None, 1, 300)            542400    
_________________________________________________________________
dropout_17 (Dropout)         (None, 1, 300)            0         
_________________________________________________________________
cu_dnnlstm_22 (CuDNNLSTM)    (None, 1, 200)            401600    
_________________________________________________________________
dropout_18 (Dropout)         (None, 1, 200)            0         
_________________________________________________________________
cu_dnnlstm_23 (CuDNNLSTM)    (None, 450)               1173600   
_________________________________________________________________
dense_11 (Dense)             (None, 1)                 451       
_________________________________________________________________
activation_8 (Activation)    (None, 1)                 0         
=================================================================
Total params: 2,218,851
Trainable params: 2,218,851
Non-trainable params: 0
_________________________________________________________________
_________________________________________________________________
Layer (type)                 Output Shape              Param #   
=================================================================
cu_dnnlstm_24 (CuDNNLSTM)    (None, 1, 250)            268000    
_________________________________________________________________
dropout_19 (Dropout)         (None, 1, 250)            0         
_________________________________________________________________
cu_dnnlstm_25 (CuDNNLSTM)    (None, 1, 200)            361600    
_________________________________________________________________
dropout_20 (Dropout)         (None, 1, 200)            0         
_________________________________________________________________
cu_dnnlstm_26 (CuDNNLSTM)    (None, 300)               602400    
_________________________________________________________________
dense_12 (Dense)             (None, 1)                 301       
_________________________________________________________________
activation_9 (Activation)    (None, 1)                 0         
=================================================================
Total params: 1,232,301
Trainable params: 1,232,301
Non-trainable params: 0
_________________________________________________________________
_________________________________________________________________
Layer (type)                 Output Shape              Param #   
=================================================================
dense_1 (Dense)              (None, 12)                204       
_________________________________________________________________
dense_2 (Dense)              (None, 8)                 104       
_________________________________________________________________
dense_3 (Dense)              (None, 1)                 9         
=================================================================
Total params: 317
Trainable params: 317
Non-trainable params: 0
_________________________________________________________________
_________________________________________________________________
Layer (type)                 Output Shape              Param #   
=================================================================
cu_dnnlstm_1 (CuDNNLSTM)     (None, 1, 50)             13600     
_________________________________________________________________
dropout_1 (Dropout)          (None, 1, 50)             0         
_________________________________________________________________
cu_dnnlstm_2 (CuDNNLSTM)     (None, 100)               60800     
_________________________________________________________________
dropout_2 (Dropout)          (None, 100)               0         
_________________________________________________________________
dense_4 (Dense)              (None, 1)                 101       
_________________________________________________________________
activation_1 (Activation)    (None, 1)                 0         
=================================================================
Total params: 74,501
Trainable params: 74,501
Non-trainable params: 0
_________________________________________________________________
_________________________________________________________________
Layer (type)                 Output Shape              Param #   
=================================================================
cu_dnnlstm_3 (CuDNNLSTM)     (None, 1, 50)             13600     
_________________________________________________________________
dropout_3 (Dropout)          (None, 1, 50)             0         
_________________________________________________________________
cu_dnnlstm_4 (CuDNNLSTM)     (None, 100)               60800     
_________________________________________________________________
dropout_4 (Dropout)          (None, 100)               0         
_________________________________________________________________
dense_5 (Dense)              (None, 1)                 101       
_________________________________________________________________
activation_2 (Activation)    (None, 1)                 0         
=================================================================
Total params: 74,501
Trainable params: 74,501
Non-trainable params: 0
_________________________________________________________________
_________________________________________________________________
Layer (type)                 Output Shape              Param #   
=================================================================
cu_dnnlstm_5 (CuDNNLSTM)     (None, 1, 50)             13600     
_________________________________________________________________
dropout_5 (Dropout)          (None, 1, 50)             0         
_________________________________________________________________
cu_dnnlstm_6 (CuDNNLSTM)     (None, 100)               60800     
_________________________________________________________________
dropout_6 (Dropout)          (None, 100)               0         
_________________________________________________________________
dense_6 (Dense)              (None, 1)                 101       
_________________________________________________________________
activation_3 (Activation)    (None, 1)                 0         
=================================================================
Total params: 74,501
Trainable params: 74,501
Non-trainable params: 0
_________________________________________________________________
_________________________________________________________________
Layer (type)                 Output Shape              Param #   
=================================================================
cu_dnnlstm_7 (CuDNNLSTM)     (None, 1, 50)             13600     
_________________________________________________________________
dropout_7 (Dropout)          (None, 1, 50)             0         
_________________________________________________________________
cu_dnnlstm_8 (CuDNNLSTM)     (None, 1, 100)            60800     
_________________________________________________________________
dropout_8 (Dropout)          (None, 1, 100)            0         
_________________________________________________________________
cu_dnnlstm_9 (CuDNNLSTM)     (None, 100)               80800     
_________________________________________________________________
dense_7 (Dense)              (None, 1)                 101       
_________________________________________________________________
activation_4 (Activation)    (None, 1)                 0         
=================================================================
Total params: 155,301
Trainable params: 155,301
Non-trainable params: 0
_________________________________________________________________
_________________________________________________________________
Layer (type)                 Output Shape              Param #   
=================================================================
cu_dnnlstm_10 (CuDNNLSTM)    (None, 1, 50)             13600     
_________________________________________________________________
dropout_9 (Dropout)          (None, 1, 50)             0         
_________________________________________________________________
cu_dnnlstm_11 (CuDNNLSTM)    (None, 1, 100)            60800     
_________________________________________________________________
dropout_10 (Dropout)         (None, 1, 100)            0         
_________________________________________________________________
cu_dnnlstm_12 (CuDNNLSTM)    (None, 100)               80800     
_________________________________________________________________
dense_8 (Dense)              (None, 1)                 101       
_________________________________________________________________
activation_5 (Activation)    (None, 1)                 0         
=================================================================
Total params: 155,301
Trainable params: 155,301
Non-trainable params: 0
_________________________________________________________________
_________________________________________________________________
Layer (type)                 Output Shape              Param #   
=================================================================
cu_dnnlstm_13 (CuDNNLSTM)    (None, 1, 150)            100800    
_________________________________________________________________
dropout_11 (Dropout)         (None, 1, 150)            0         
_________________________________________________________________
cu_dnnlstm_14 (CuDNNLSTM)    (None, 1, 250)            402000    
_________________________________________________________________
dropout_12 (Dropout)         (None, 1, 250)            0         
_________________________________________________________________
cu_dnnlstm_15 (CuDNNLSTM)    (None, 200)               361600    
_________________________________________________________________
dense_9 (Dense)              (None, 1)                 201       
_________________________________________________________________
activation_6 (Activation)    (None, 1)                 0         
=================================================================
Total params: 864,601
Trainable params: 864,601
Non-trainable params: 0
_________________________________________________________________
_________________________________________________________________
Layer (type)                 Output Shape              Param #   
=================================================================
cu_dnnlstm_16 (CuDNNLSTM)    (None, 1, 150)            100800    
_________________________________________________________________
dropout_13 (Dropout)         (None, 1, 150)            0         
_________________________________________________________________
cu_dnnlstm_17 (CuDNNLSTM)    (None, 1, 300)            542400    
_________________________________________________________________
dropout_14 (Dropout)         (None, 1, 300)            0         
_________________________________________________________________
cu_dnnlstm_18 (CuDNNLSTM)    (None, 1, 200)            401600    
_________________________________________________________________
dropout_15 (Dropout)         (None, 1, 200)            0         
_________________________________________________________________
cu_dnnlstm_19 (CuDNNLSTM)    (None, 450)               1173600   
_________________________________________________________________
dense_10 (Dense)             (None, 1)                 451       
_________________________________________________________________
activation_7 (Activation)    (None, 1)                 0         
=================================================================
Total params: 2,218,851
Trainable params: 2,218,851
Non-trainable params: 0
_________________________________________________________________
_________________________________________________________________
Layer (type)                 Output Shape              Param #   
=================================================================
cu_dnnlstm_20 (CuDNNLSTM)    (None, 1, 150)            100800    
_________________________________________________________________
dropout_16 (Dropout)         (None, 1, 150)            0         
_________________________________________________________________
cu_dnnlstm_21 (CuDNNLSTM)    (None, 1, 300)            542400    
_________________________________________________________________
dropout_17 (Dropout)         (None, 1, 300)            0         
_________________________________________________________________
cu_dnnlstm_22 (CuDNNLSTM)    (None, 1, 200)            401600    
_________________________________________________________________
dropout_18 (Dropout)         (None, 1, 200)            0         
_________________________________________________________________
cu_dnnlstm_23 (CuDNNLSTM)    (None, 450)               1173600   
_________________________________________________________________
dense_11 (Dense)             (None, 1)                 451       
_________________________________________________________________
activation_8 (Activation)    (None, 1)                 0         
=================================================================
Total params: 2,218,851
Trainable params: 2,218,851
Non-trainable params: 0
_________________________________________________________________
_________________________________________________________________
Layer (type)                 Output Shape              Param #   
=================================================================
cu_dnnlstm_24 (CuDNNLSTM)    (None, 1, 250)            268000    
_________________________________________________________________
dropout_19 (Dropout)         (None, 1, 250)            0         
_________________________________________________________________
cu_dnnlstm_25 (CuDNNLSTM)    (None, 1, 200)            361600    
_________________________________________________________________
dropout_20 (Dropout)         (None, 1, 200)            0         
_________________________________________________________________
cu_dnnlstm_26 (CuDNNLSTM)    (None, 300)               602400    
_________________________________________________________________
dense_12 (Dense)             (None, 1)                 301       
_________________________________________________________________
activation_9 (Activation)    (None, 1)                 0         
=================================================================
Total params: 1,232,301
Trainable params: 1,232,301
Non-trainable params: 0
_________________________________________________________________
_________________________________________________________________
Layer (type)                 Output Shape              Param #   
=================================================================
dense_1 (Dense)              (None, 12)                204       
_________________________________________________________________
dense_2 (Dense)              (None, 8)                 104       
_________________________________________________________________
dense_3 (Dense)              (None, 1)                 9         
=================================================================
Total params: 317
Trainable params: 317
Non-trainable params: 0
_________________________________________________________________
_________________________________________________________________
Layer (type)                 Output Shape              Param #   
=================================================================
cu_dnnlstm_1 (CuDNNLSTM)     (None, 1, 50)             13600     
_________________________________________________________________
dropout_1 (Dropout)          (None, 1, 50)             0         
_________________________________________________________________
cu_dnnlstm_2 (CuDNNLSTM)     (None, 100)               60800     
_________________________________________________________________
dropout_2 (Dropout)          (None, 100)               0         
_________________________________________________________________
dense_4 (Dense)              (None, 1)                 101       
_________________________________________________________________
activation_1 (Activation)    (None, 1)                 0         
=================================================================
Total params: 74,501
Trainable params: 74,501
Non-trainable params: 0
_________________________________________________________________
_________________________________________________________________
Layer (type)                 Output Shape              Param #   
=================================================================
cu_dnnlstm_3 (CuDNNLSTM)     (None, 1, 50)             13600     
_________________________________________________________________
dropout_3 (Dropout)          (None, 1, 50)             0         
_________________________________________________________________
cu_dnnlstm_4 (CuDNNLSTM)     (None, 100)               60800     
_________________________________________________________________
dropout_4 (Dropout)          (None, 100)               0         
_________________________________________________________________
dense_5 (Dense)              (None, 1)                 101       
_________________________________________________________________
activation_2 (Activation)    (None, 1)                 0         
=================================================================
Total params: 74,501
Trainable params: 74,501
Non-trainable params: 0
_________________________________________________________________
_________________________________________________________________
Layer (type)                 Output Shape              Param #   
=================================================================
cu_dnnlstm_5 (CuDNNLSTM)     (None, 1, 50)             13600     
_________________________________________________________________
dropout_5 (Dropout)          (None, 1, 50)             0         
_________________________________________________________________
cu_dnnlstm_6 (CuDNNLSTM)     (None, 100)               60800     
_________________________________________________________________
dropout_6 (Dropout)          (None, 100)               0         
_________________________________________________________________
dense_6 (Dense)              (None, 1)                 101       
_________________________________________________________________
activation_3 (Activation)    (None, 1)                 0         
=================================================================
Total params: 74,501
Trainable params: 74,501
Non-trainable params: 0
_________________________________________________________________
_________________________________________________________________
Layer (type)                 Output Shape              Param #   
=================================================================
cu_dnnlstm_7 (CuDNNLSTM)     (None, 1, 50)             13600     
_________________________________________________________________
dropout_7 (Dropout)          (None, 1, 50)             0         
_________________________________________________________________
cu_dnnlstm_8 (CuDNNLSTM)     (None, 1, 100)            60800     
_________________________________________________________________
dropout_8 (Dropout)          (None, 1, 100)            0         
_________________________________________________________________
cu_dnnlstm_9 (CuDNNLSTM)     (None, 100)               80800     
_________________________________________________________________
dense_7 (Dense)              (None, 1)                 101       
_________________________________________________________________
activation_4 (Activation)    (None, 1)                 0         
=================================================================
Total params: 155,301
Trainable params: 155,301
Non-trainable params: 0
_________________________________________________________________
_________________________________________________________________
Layer (type)                 Output Shape              Param #   
=================================================================
cu_dnnlstm_10 (CuDNNLSTM)    (None, 1, 50)             13600     
_________________________________________________________________
dropout_9 (Dropout)          (None, 1, 50)             0         
_________________________________________________________________
cu_dnnlstm_11 (CuDNNLSTM)    (None, 1, 100)            60800     
_________________________________________________________________
dropout_10 (Dropout)         (None, 1, 100)            0         
_________________________________________________________________
cu_dnnlstm_12 (CuDNNLSTM)    (None, 100)               80800     
_________________________________________________________________
dense_8 (Dense)              (None, 1)                 101       
_________________________________________________________________
activation_5 (Activation)    (None, 1)                 0         
=================================================================
Total params: 155,301
Trainable params: 155,301
Non-trainable params: 0
_________________________________________________________________
_________________________________________________________________
Layer (type)                 Output Shape              Param #   
=================================================================
cu_dnnlstm_13 (CuDNNLSTM)    (None, 1, 150)            100800    
_________________________________________________________________
dropout_11 (Dropout)         (None, 1, 150)            0         
_________________________________________________________________
cu_dnnlstm_14 (CuDNNLSTM)    (None, 1, 250)            402000    
_________________________________________________________________
dropout_12 (Dropout)         (None, 1, 250)            0         
_________________________________________________________________
cu_dnnlstm_15 (CuDNNLSTM)    (None, 200)               361600    
_________________________________________________________________
dense_9 (Dense)              (None, 1)                 201       
_________________________________________________________________
activation_6 (Activation)    (None, 1)                 0         
=================================================================
Total params: 864,601
Trainable params: 864,601
Non-trainable params: 0
_________________________________________________________________
_________________________________________________________________
Layer (type)                 Output Shape              Param #   
=================================================================
cu_dnnlstm_16 (CuDNNLSTM)    (None, 1, 150)            100800    
_________________________________________________________________
dropout_13 (Dropout)         (None, 1, 150)            0         
_________________________________________________________________
cu_dnnlstm_17 (CuDNNLSTM)    (None, 1, 300)            542400    
_________________________________________________________________
dropout_14 (Dropout)         (None, 1, 300)            0         
_________________________________________________________________
cu_dnnlstm_18 (CuDNNLSTM)    (None, 1, 200)            401600    
_________________________________________________________________
dropout_15 (Dropout)         (None, 1, 200)            0         
_________________________________________________________________
cu_dnnlstm_19 (CuDNNLSTM)    (None, 450)               1173600   
_________________________________________________________________
dense_10 (Dense)             (None, 1)                 451       
_________________________________________________________________
activation_7 (Activation)    (None, 1)                 0         
=================================================================
Total params: 2,218,851
Trainable params: 2,218,851
Non-trainable params: 0
_________________________________________________________________
_________________________________________________________________
Layer (type)                 Output Shape              Param #   
=================================================================
cu_dnnlstm_20 (CuDNNLSTM)    (None, 1, 150)            100800    
_________________________________________________________________
dropout_16 (Dropout)         (None, 1, 150)            0         
_________________________________________________________________
cu_dnnlstm_21 (CuDNNLSTM)    (None, 1, 300)            542400    
_________________________________________________________________
dropout_17 (Dropout)         (None, 1, 300)            0         
_________________________________________________________________
cu_dnnlstm_22 (CuDNNLSTM)    (None, 1, 200)            401600    
_________________________________________________________________
dropout_18 (Dropout)         (None, 1, 200)            0         
_________________________________________________________________
cu_dnnlstm_23 (CuDNNLSTM)    (None, 450)               1173600   
_________________________________________________________________
dense_11 (Dense)             (None, 1)                 451       
_________________________________________________________________
activation_8 (Activation)    (None, 1)                 0         
=================================================================
Total params: 2,218,851
Trainable params: 2,218,851
Non-trainable params: 0
_________________________________________________________________
_________________________________________________________________
Layer (type)                 Output Shape              Param #   
=================================================================
cu_dnnlstm_24 (CuDNNLSTM)    (None, 1, 250)            268000    
_________________________________________________________________
dropout_19 (Dropout)         (None, 1, 250)            0         
_________________________________________________________________
cu_dnnlstm_25 (CuDNNLSTM)    (None, 1, 200)            361600    
_________________________________________________________________
dropout_20 (Dropout)         (None, 1, 200)            0         
_________________________________________________________________
cu_dnnlstm_26 (CuDNNLSTM)    (None, 300)               602400    
_________________________________________________________________
dense_12 (Dense)             (None, 1)                 301       
_________________________________________________________________
activation_9 (Activation)    (None, 1)                 0         
=================================================================
Total params: 1,232,301
Trainable params: 1,232,301
Non-trainable params: 0
_________________________________________________________________
_________________________________________________________________
Layer (type)                 Output Shape              Param #   
=================================================================
dense_1 (Dense)              (None, 12)                204       
_________________________________________________________________
dense_2 (Dense)              (None, 8)                 104       
_________________________________________________________________
dense_3 (Dense)              (None, 1)                 9         
=================================================================
Total params: 317
Trainable params: 317
Non-trainable params: 0
_________________________________________________________________
_________________________________________________________________
Layer (type)                 Output Shape              Param #   
=================================================================
cu_dnnlstm_1 (CuDNNLSTM)     (None, 1, 50)             13600     
_________________________________________________________________
dropout_1 (Dropout)          (None, 1, 50)             0         
_________________________________________________________________
cu_dnnlstm_2 (CuDNNLSTM)     (None, 100)               60800     
_________________________________________________________________
dropout_2 (Dropout)          (None, 100)               0         
_________________________________________________________________
dense_4 (Dense)              (None, 1)                 101       
_________________________________________________________________
activation_1 (Activation)    (None, 1)                 0         
=================================================================
Total params: 74,501
Trainable params: 74,501
Non-trainable params: 0
_________________________________________________________________
_________________________________________________________________
Layer (type)                 Output Shape              Param #   
=================================================================
cu_dnnlstm_3 (CuDNNLSTM)     (None, 1, 50)             13600     
_________________________________________________________________
dropout_3 (Dropout)          (None, 1, 50)             0         
_________________________________________________________________
cu_dnnlstm_4 (CuDNNLSTM)     (None, 100)               60800     
_________________________________________________________________
dropout_4 (Dropout)          (None, 100)               0         
_________________________________________________________________
dense_5 (Dense)              (None, 1)                 101       
_________________________________________________________________
activation_2 (Activation)    (None, 1)                 0         
=================================================================
Total params: 74,501
Trainable params: 74,501
Non-trainable params: 0
_________________________________________________________________
_________________________________________________________________
Layer (type)                 Output Shape              Param #   
=================================================================
cu_dnnlstm_5 (CuDNNLSTM)     (None, 1, 50)             13600     
_________________________________________________________________
dropout_5 (Dropout)          (None, 1, 50)             0         
_________________________________________________________________
cu_dnnlstm_6 (CuDNNLSTM)     (None, 100)               60800     
_________________________________________________________________
dropout_6 (Dropout)          (None, 100)               0         
_________________________________________________________________
dense_6 (Dense)              (None, 1)                 101       
_________________________________________________________________
activation_3 (Activation)    (None, 1)                 0         
=================================================================
Total params: 74,501
Trainable params: 74,501
Non-trainable params: 0
_________________________________________________________________
_________________________________________________________________
Layer (type)                 Output Shape              Param #   
=================================================================
cu_dnnlstm_7 (CuDNNLSTM)     (None, 1, 50)             13600     
_________________________________________________________________
dropout_7 (Dropout)          (None, 1, 50)             0         
_________________________________________________________________
cu_dnnlstm_8 (CuDNNLSTM)     (None, 1, 100)            60800     
_________________________________________________________________
dropout_8 (Dropout)          (None, 1, 100)            0         
_________________________________________________________________
cu_dnnlstm_9 (CuDNNLSTM)     (None, 100)               80800     
_________________________________________________________________
dense_7 (Dense)              (None, 1)                 101       
_________________________________________________________________
activation_4 (Activation)    (None, 1)                 0         
=================================================================
Total params: 155,301
Trainable params: 155,301
Non-trainable params: 0
_________________________________________________________________
_________________________________________________________________
Layer (type)                 Output Shape              Param #   
=================================================================
cu_dnnlstm_10 (CuDNNLSTM)    (None, 1, 50)             13600     
_________________________________________________________________
dropout_9 (Dropout)          (None, 1, 50)             0         
_________________________________________________________________
cu_dnnlstm_11 (CuDNNLSTM)    (None, 1, 100)            60800     
_________________________________________________________________
dropout_10 (Dropout)         (None, 1, 100)            0         
_________________________________________________________________
cu_dnnlstm_12 (CuDNNLSTM)    (None, 100)               80800     
_________________________________________________________________
dense_8 (Dense)              (None, 1)                 101       
_________________________________________________________________
activation_5 (Activation)    (None, 1)                 0         
=================================================================
Total params: 155,301
Trainable params: 155,301
Non-trainable params: 0
_________________________________________________________________
_________________________________________________________________
Layer (type)                 Output Shape              Param #   
=================================================================
cu_dnnlstm_13 (CuDNNLSTM)    (None, 1, 150)            100800    
_________________________________________________________________
dropout_11 (Dropout)         (None, 1, 150)            0         
_________________________________________________________________
cu_dnnlstm_14 (CuDNNLSTM)    (None, 1, 250)            402000    
_________________________________________________________________
dropout_12 (Dropout)         (None, 1, 250)            0         
_________________________________________________________________
cu_dnnlstm_15 (CuDNNLSTM)    (None, 200)               361600    
_________________________________________________________________
dense_9 (Dense)              (None, 1)                 201       
_________________________________________________________________
activation_6 (Activation)    (None, 1)                 0         
=================================================================
Total params: 864,601
Trainable params: 864,601
Non-trainable params: 0
_________________________________________________________________
_________________________________________________________________
Layer (type)                 Output Shape              Param #   
=================================================================
cu_dnnlstm_16 (CuDNNLSTM)    (None, 1, 150)            100800    
_________________________________________________________________
dropout_13 (Dropout)         (None, 1, 150)            0         
_________________________________________________________________
cu_dnnlstm_17 (CuDNNLSTM)    (None, 1, 300)            542400    
_________________________________________________________________
dropout_14 (Dropout)         (None, 1, 300)            0         
_________________________________________________________________
cu_dnnlstm_18 (CuDNNLSTM)    (None, 1, 200)            401600    
_________________________________________________________________
dropout_15 (Dropout)         (None, 1, 200)            0         
_________________________________________________________________
cu_dnnlstm_19 (CuDNNLSTM)    (None, 450)               1173600   
_________________________________________________________________
dense_10 (Dense)             (None, 1)                 451       
_________________________________________________________________
activation_7 (Activation)    (None, 1)                 0         
=================================================================
Total params: 2,218,851
Trainable params: 2,218,851
Non-trainable params: 0
_________________________________________________________________
_________________________________________________________________
Layer (type)                 Output Shape              Param #   
=================================================================
cu_dnnlstm_20 (CuDNNLSTM)    (None, 1, 150)            100800    
_________________________________________________________________
dropout_16 (Dropout)         (None, 1, 150)            0         
_________________________________________________________________
cu_dnnlstm_21 (CuDNNLSTM)    (None, 1, 300)            542400    
_________________________________________________________________
dropout_17 (Dropout)         (None, 1, 300)            0         
_________________________________________________________________
cu_dnnlstm_22 (CuDNNLSTM)    (None, 1, 200)            401600    
_________________________________________________________________
dropout_18 (Dropout)         (None, 1, 200)            0         
_________________________________________________________________
cu_dnnlstm_23 (CuDNNLSTM)    (None, 450)               1173600   
_________________________________________________________________
dense_11 (Dense)             (None, 1)                 451       
_________________________________________________________________
activation_8 (Activation)    (None, 1)                 0         
=================================================================
Total params: 2,218,851
Trainable params: 2,218,851
Non-trainable params: 0
_________________________________________________________________
_________________________________________________________________
Layer (type)                 Output Shape              Param #   
=================================================================
cu_dnnlstm_24 (CuDNNLSTM)    (None, 1, 250)            268000    
_________________________________________________________________
dropout_19 (Dropout)         (None, 1, 250)            0         
_________________________________________________________________
cu_dnnlstm_25 (CuDNNLSTM)    (None, 1, 200)            361600    
_________________________________________________________________
dropout_20 (Dropout)         (None, 1, 200)            0         
_________________________________________________________________
cu_dnnlstm_26 (CuDNNLSTM)    (None, 300)               602400    
_________________________________________________________________
dense_12 (Dense)             (None, 1)                 301       
_________________________________________________________________
activation_9 (Activation)    (None, 1)                 0         
=================================================================
Total params: 1,232,301
Trainable params: 1,232,301
Non-trainable params: 0
_________________________________________________________________
_________________________________________________________________
Layer (type)                 Output Shape              Param #   
=================================================================
dense_1 (Dense)              (None, 12)                204       
_________________________________________________________________
dense_2 (Dense)              (None, 8)                 104       
_________________________________________________________________
dense_3 (Dense)              (None, 1)                 9         
=================================================================
Total params: 317
Trainable params: 317
Non-trainable params: 0
_________________________________________________________________
_________________________________________________________________
Layer (type)                 Output Shape              Param #   
=================================================================
cu_dnnlstm_1 (CuDNNLSTM)     (None, 1, 50)             13600     
_________________________________________________________________
dropout_1 (Dropout)          (None, 1, 50)             0         
_________________________________________________________________
cu_dnnlstm_2 (CuDNNLSTM)     (None, 100)               60800     
_________________________________________________________________
dropout_2 (Dropout)          (None, 100)               0         
_________________________________________________________________
dense_4 (Dense)              (None, 1)                 101       
_________________________________________________________________
activation_1 (Activation)    (None, 1)                 0         
=================================================================
Total params: 74,501
Trainable params: 74,501
Non-trainable params: 0
_________________________________________________________________
_________________________________________________________________
Layer (type)                 Output Shape              Param #   
=================================================================
cu_dnnlstm_3 (CuDNNLSTM)     (None, 1, 50)             13600     
_________________________________________________________________
dropout_3 (Dropout)          (None, 1, 50)             0         
_________________________________________________________________
cu_dnnlstm_4 (CuDNNLSTM)     (None, 100)               60800     
_________________________________________________________________
dropout_4 (Dropout)          (None, 100)               0         
_________________________________________________________________
dense_5 (Dense)              (None, 1)                 101       
_________________________________________________________________
activation_2 (Activation)    (None, 1)                 0         
=================================================================
Total params: 74,501
Trainable params: 74,501
Non-trainable params: 0
_________________________________________________________________
_________________________________________________________________
Layer (type)                 Output Shape              Param #   
=================================================================
cu_dnnlstm_5 (CuDNNLSTM)     (None, 1, 50)             13600     
_________________________________________________________________
dropout_5 (Dropout)          (None, 1, 50)             0         
_________________________________________________________________
cu_dnnlstm_6 (CuDNNLSTM)     (None, 100)               60800     
_________________________________________________________________
dropout_6 (Dropout)          (None, 100)               0         
_________________________________________________________________
dense_6 (Dense)              (None, 1)                 101       
_________________________________________________________________
activation_3 (Activation)    (None, 1)                 0         
=================================================================
Total params: 74,501
Trainable params: 74,501
Non-trainable params: 0
_________________________________________________________________
_________________________________________________________________
Layer (type)                 Output Shape              Param #   
=================================================================
cu_dnnlstm_7 (CuDNNLSTM)     (None, 1, 50)             13600     
_________________________________________________________________
dropout_7 (Dropout)          (None, 1, 50)             0         
_________________________________________________________________
cu_dnnlstm_8 (CuDNNLSTM)     (None, 1, 100)            60800     
_________________________________________________________________
dropout_8 (Dropout)          (None, 1, 100)            0         
_________________________________________________________________
cu_dnnlstm_9 (CuDNNLSTM)     (None, 100)               80800     
_________________________________________________________________
dense_7 (Dense)              (None, 1)                 101       
_________________________________________________________________
activation_4 (Activation)    (None, 1)                 0         
=================================================================
Total params: 155,301
Trainable params: 155,301
Non-trainable params: 0
_________________________________________________________________
_________________________________________________________________
Layer (type)                 Output Shape              Param #   
=================================================================
cu_dnnlstm_10 (CuDNNLSTM)    (None, 1, 50)             13600     
_________________________________________________________________
dropout_9 (Dropout)          (None, 1, 50)             0         
_________________________________________________________________
cu_dnnlstm_11 (CuDNNLSTM)    (None, 1, 100)            60800     
_________________________________________________________________
dropout_10 (Dropout)         (None, 1, 100)            0         
_________________________________________________________________
cu_dnnlstm_12 (CuDNNLSTM)    (None, 100)               80800     
_________________________________________________________________
dense_8 (Dense)              (None, 1)                 101       
_________________________________________________________________
activation_5 (Activation)    (None, 1)                 0         
=================================================================
Total params: 155,301
Trainable params: 155,301
Non-trainable params: 0
_________________________________________________________________
_________________________________________________________________
Layer (type)                 Output Shape              Param #   
=================================================================
cu_dnnlstm_13 (CuDNNLSTM)    (None, 1, 150)            100800    
_________________________________________________________________
dropout_11 (Dropout)         (None, 1, 150)            0         
_________________________________________________________________
cu_dnnlstm_14 (CuDNNLSTM)    (None, 1, 250)            402000    
_________________________________________________________________
dropout_12 (Dropout)         (None, 1, 250)            0         
_________________________________________________________________
cu_dnnlstm_15 (CuDNNLSTM)    (None, 200)               361600    
_________________________________________________________________
dense_9 (Dense)              (None, 1)                 201       
_________________________________________________________________
activation_6 (Activation)    (None, 1)                 0         
=================================================================
Total params: 864,601
Trainable params: 864,601
Non-trainable params: 0
_________________________________________________________________
_________________________________________________________________
Layer (type)                 Output Shape              Param #   
=================================================================
cu_dnnlstm_16 (CuDNNLSTM)    (None, 1, 150)            100800    
_________________________________________________________________
dropout_13 (Dropout)         (None, 1, 150)            0         
_________________________________________________________________
cu_dnnlstm_17 (CuDNNLSTM)    (None, 1, 300)            542400    
_________________________________________________________________
dropout_14 (Dropout)         (None, 1, 300)            0         
_________________________________________________________________
cu_dnnlstm_18 (CuDNNLSTM)    (None, 1, 200)            401600    
_________________________________________________________________
dropout_15 (Dropout)         (None, 1, 200)            0         
_________________________________________________________________
cu_dnnlstm_19 (CuDNNLSTM)    (None, 450)               1173600   
_________________________________________________________________
dense_10 (Dense)             (None, 1)                 451       
_________________________________________________________________
activation_7 (Activation)    (None, 1)                 0         
=================================================================
Total params: 2,218,851
Trainable params: 2,218,851
Non-trainable params: 0
_________________________________________________________________
_________________________________________________________________
Layer (type)                 Output Shape              Param #   
=================================================================
cu_dnnlstm_20 (CuDNNLSTM)    (None, 1, 150)            100800    
_________________________________________________________________
dropout_16 (Dropout)         (None, 1, 150)            0         
_________________________________________________________________
cu_dnnlstm_21 (CuDNNLSTM)    (None, 1, 300)            542400    
_________________________________________________________________
dropout_17 (Dropout)         (None, 1, 300)            0         
_________________________________________________________________
cu_dnnlstm_22 (CuDNNLSTM)    (None, 1, 200)            401600    
_________________________________________________________________
dropout_18 (Dropout)         (None, 1, 200)            0         
_________________________________________________________________
cu_dnnlstm_23 (CuDNNLSTM)    (None, 450)               1173600   
_________________________________________________________________
dense_11 (Dense)             (None, 1)                 451       
_________________________________________________________________
activation_8 (Activation)    (None, 1)                 0         
=================================================================
Total params: 2,218,851
Trainable params: 2,218,851
Non-trainable params: 0
_________________________________________________________________
_________________________________________________________________
Layer (type)                 Output Shape              Param #   
=================================================================
cu_dnnlstm_24 (CuDNNLSTM)    (None, 1, 250)            268000    
_________________________________________________________________
dropout_19 (Dropout)         (None, 1, 250)            0         
_________________________________________________________________
cu_dnnlstm_25 (CuDNNLSTM)    (None, 1, 200)            361600    
_________________________________________________________________
dropout_20 (Dropout)         (None, 1, 200)            0         
_________________________________________________________________
cu_dnnlstm_26 (CuDNNLSTM)    (None, 300)               602400    
_________________________________________________________________
dense_12 (Dense)             (None, 1)                 301       
_________________________________________________________________
activation_9 (Activation)    (None, 1)                 0         
=================================================================
Total params: 1,232,301
Trainable params: 1,232,301
Non-trainable params: 0
_________________________________________________________________
_________________________________________________________________
Layer (type)                 Output Shape              Param #   
=================================================================
dense_1 (Dense)              (None, 12)                204       
_________________________________________________________________
dense_2 (Dense)              (None, 8)                 104       
_________________________________________________________________
dense_3 (Dense)              (None, 1)                 9         
=================================================================
Total params: 317
Trainable params: 317
Non-trainable params: 0
_________________________________________________________________
_________________________________________________________________
Layer (type)                 Output Shape              Param #   
=================================================================
cu_dnnlstm_1 (CuDNNLSTM)     (None, 1, 50)             13600     
_________________________________________________________________
dropout_1 (Dropout)          (None, 1, 50)             0         
_________________________________________________________________
cu_dnnlstm_2 (CuDNNLSTM)     (None, 100)               60800     
_________________________________________________________________
dropout_2 (Dropout)          (None, 100)               0         
_________________________________________________________________
dense_4 (Dense)              (None, 1)                 101       
_________________________________________________________________
activation_1 (Activation)    (None, 1)                 0         
=================================================================
Total params: 74,501
Trainable params: 74,501
Non-trainable params: 0
_________________________________________________________________
_________________________________________________________________
Layer (type)                 Output Shape              Param #   
=================================================================
cu_dnnlstm_3 (CuDNNLSTM)     (None, 1, 50)             13600     
_________________________________________________________________
dropout_3 (Dropout)          (None, 1, 50)             0         
_________________________________________________________________
cu_dnnlstm_4 (CuDNNLSTM)     (None, 100)               60800     
_________________________________________________________________
dropout_4 (Dropout)          (None, 100)               0         
_________________________________________________________________
dense_5 (Dense)              (None, 1)                 101       
_________________________________________________________________
activation_2 (Activation)    (None, 1)                 0         
=================================================================
Total params: 74,501
Trainable params: 74,501
Non-trainable params: 0
_________________________________________________________________
_________________________________________________________________
Layer (type)                 Output Shape              Param #   
=================================================================
cu_dnnlstm_5 (CuDNNLSTM)     (None, 1, 50)             13600     
_________________________________________________________________
dropout_5 (Dropout)          (None, 1, 50)             0         
_________________________________________________________________
cu_dnnlstm_6 (CuDNNLSTM)     (None, 100)               60800     
_________________________________________________________________
dropout_6 (Dropout)          (None, 100)               0         
_________________________________________________________________
dense_6 (Dense)              (None, 1)                 101       
_________________________________________________________________
activation_3 (Activation)    (None, 1)                 0         
=================================================================
Total params: 74,501
Trainable params: 74,501
Non-trainable params: 0
_________________________________________________________________
_________________________________________________________________
Layer (type)                 Output Shape              Param #   
=================================================================
cu_dnnlstm_7 (CuDNNLSTM)     (None, 1, 50)             13600     
_________________________________________________________________
dropout_7 (Dropout)          (None, 1, 50)             0         
_________________________________________________________________
cu_dnnlstm_8 (CuDNNLSTM)     (None, 1, 100)            60800     
_________________________________________________________________
dropout_8 (Dropout)          (None, 1, 100)            0         
_________________________________________________________________
cu_dnnlstm_9 (CuDNNLSTM)     (None, 100)               80800     
_________________________________________________________________
dense_7 (Dense)              (None, 1)                 101       
_________________________________________________________________
activation_4 (Activation)    (None, 1)                 0         
=================================================================
Total params: 155,301
Trainable params: 155,301
Non-trainable params: 0
_________________________________________________________________
_________________________________________________________________
Layer (type)                 Output Shape              Param #   
=================================================================
cu_dnnlstm_10 (CuDNNLSTM)    (None, 1, 50)             13600     
_________________________________________________________________
dropout_9 (Dropout)          (None, 1, 50)             0         
_________________________________________________________________
cu_dnnlstm_11 (CuDNNLSTM)    (None, 1, 100)            60800     
_________________________________________________________________
dropout_10 (Dropout)         (None, 1, 100)            0         
_________________________________________________________________
cu_dnnlstm_12 (CuDNNLSTM)    (None, 100)               80800     
_________________________________________________________________
dense_8 (Dense)              (None, 1)                 101       
_________________________________________________________________
activation_5 (Activation)    (None, 1)                 0         
=================================================================
Total params: 155,301
Trainable params: 155,301
Non-trainable params: 0
_________________________________________________________________
_________________________________________________________________
Layer (type)                 Output Shape              Param #   
=================================================================
cu_dnnlstm_13 (CuDNNLSTM)    (None, 1, 150)            100800    
_________________________________________________________________
dropout_11 (Dropout)         (None, 1, 150)            0         
_________________________________________________________________
cu_dnnlstm_14 (CuDNNLSTM)    (None, 1, 250)            402000    
_________________________________________________________________
dropout_12 (Dropout)         (None, 1, 250)            0         
_________________________________________________________________
cu_dnnlstm_15 (CuDNNLSTM)    (None, 200)               361600    
_________________________________________________________________
dense_9 (Dense)              (None, 1)                 201       
_________________________________________________________________
activation_6 (Activation)    (None, 1)                 0         
…
dropout_5 (Dropout)          (None, 1, 50)             0         
_________________________________________________________________
cu_dnnlstm_6 (CuDNNLSTM)     (None, 100)               60800     
_________________________________________________________________
dropout_6 (Dropout)          (None, 100)               0         
_________________________________________________________________
dense_6 (Dense)              (None, 1)                 101       
_________________________________________________________________
activation_3 (Activation)    (None, 1)                 0         
=================================================================
Total params: 74,501
Trainable params: 74,501
Non-trainable params: 0
_________________________________________________________________
_________________________________________________________________
Layer (type)                 Output Shape              Param #   
=================================================================
cu_dnnlstm_7 (CuDNNLSTM)     (None, 1, 50)             13600     
_________________________________________________________________
dropout_7 (Dropout)          (None, 1, 50)             0         
_________________________________________________________________
cu_dnnlstm_8 (CuDNNLSTM)     (None, 100)               60800     
_________________________________________________________________
dropout_8 (Dropout)          (None, 100)               0         
_________________________________________________________________
dense_7 (Dense)              (None, 1)                 101       
_________________________________________________________________
activation_4 (Activation)    (None, 1)                 0         
=================================================================
Total params: 74,501
Trainable params: 74,501
Non-trainable params: 0
_________________________________________________________________
_________________________________________________________________
Layer (type)                 Output Shape              Param #   
=================================================================
cu_dnnlstm_9 (CuDNNLSTM)     (None, 1, 50)             13600     
_________________________________________________________________
dropout_9 (Dropout)          (None, 1, 50)             0         
_________________________________________________________________
cu_dnnlstm_10 (CuDNNLSTM)    (None, 1, 100)            60800     
_________________________________________________________________
dropout_10 (Dropout)         (None, 1, 100)            0         
_________________________________________________________________
cu_dnnlstm_11 (CuDNNLSTM)    (None, 100)               80800     
_________________________________________________________________
dense_8 (Dense)              (None, 1)                 101       
_________________________________________________________________
activation_5 (Activation)    (None, 1)                 0         
=================================================================
Total params: 155,301
Trainable params: 155,301
Non-trainable params: 0
_________________________________________________________________
_________________________________________________________________
Layer (type)                 Output Shape              Param #   
=================================================================
cu_dnnlstm_12 (CuDNNLSTM)    (None, 1, 50)             13600     
_________________________________________________________________
dropout_11 (Dropout)         (None, 1, 50)             0         
_________________________________________________________________
cu_dnnlstm_13 (CuDNNLSTM)    (None, 1, 100)            60800     
_________________________________________________________________
dropout_12 (Dropout)         (None, 1, 100)            0         
_________________________________________________________________
cu_dnnlstm_14 (CuDNNLSTM)    (None, 100)               80800     
_________________________________________________________________
dense_9 (Dense)              (None, 1)                 101       
_________________________________________________________________
activation_6 (Activation)    (None, 1)                 0         
=================================================================
Total params: 155,301
Trainable params: 155,301
Non-trainable params: 0
_________________________________________________________________
_________________________________________________________________
Layer (type)                 Output Shape              Param #   
=================================================================
cu_dnnlstm_15 (CuDNNLSTM)    (None, 1, 150)            100800    
_________________________________________________________________
dropout_13 (Dropout)         (None, 1, 150)            0         
_________________________________________________________________
cu_dnnlstm_16 (CuDNNLSTM)    (None, 1, 250)            402000    
_________________________________________________________________
dropout_14 (Dropout)         (None, 1, 250)            0         
_________________________________________________________________
cu_dnnlstm_17 (CuDNNLSTM)    (None, 200)               361600    
_________________________________________________________________
dense_10 (Dense)             (None, 1)                 201       
_________________________________________________________________
activation_7 (Activation)    (None, 1)                 0         
=================================================================
Total params: 864,601
Trainable params: 864,601
Non-trainable params: 0
_________________________________________________________________
_________________________________________________________________
Layer (type)                 Output Shape              Param #   
=================================================================
cu_dnnlstm_18 (CuDNNLSTM)    (None, 1, 150)            100800    
_________________________________________________________________
dropout_15 (Dropout)         (None, 1, 150)            0         
_________________________________________________________________
cu_dnnlstm_19 (CuDNNLSTM)    (None, 1, 300)            542400    
_________________________________________________________________
dropout_16 (Dropout)         (None, 1, 300)            0         
_________________________________________________________________
cu_dnnlstm_20 (CuDNNLSTM)    (None, 1, 200)            401600    
_________________________________________________________________
dropout_17 (Dropout)         (None, 1, 200)            0         
_________________________________________________________________
cu_dnnlstm_21 (CuDNNLSTM)    (None, 450)               1173600   
_________________________________________________________________
dense_11 (Dense)             (None, 1)                 451       
_________________________________________________________________
activation_8 (Activation)    (None, 1)                 0         
=================================================================
Total params: 2,218,851
Trainable params: 2,218,851
Non-trainable params: 0
_________________________________________________________________
_________________________________________________________________
Layer (type)                 Output Shape              Param #   
=================================================================
cu_dnnlstm_22 (CuDNNLSTM)    (None, 1, 150)            100800    
_________________________________________________________________
dropout_18 (Dropout)         (None, 1, 150)            0         
_________________________________________________________________
cu_dnnlstm_23 (CuDNNLSTM)    (None, 1, 300)            542400    
_________________________________________________________________
dropout_19 (Dropout)         (None, 1, 300)            0         
_________________________________________________________________
cu_dnnlstm_24 (CuDNNLSTM)    (None, 1, 200)            401600    
_________________________________________________________________
dropout_20 (Dropout)         (None, 1, 200)            0         
_________________________________________________________________
cu_dnnlstm_25 (CuDNNLSTM)    (None, 450)               1173600   
_________________________________________________________________
dense_12 (Dense)             (None, 1)                 451       
_________________________________________________________________
activation_9 (Activation)    (None, 1)                 0         
=================================================================
Total params: 2,218,851
Trainable params: 2,218,851
Non-trainable params: 0
_________________________________________________________________
_________________________________________________________________
Layer (type)                 Output Shape              Param #   
=================================================================
cu_dnnlstm_26 (CuDNNLSTM)    (None, 1, 250)            268000    
_________________________________________________________________
dropout_21 (Dropout)         (None, 1, 250)            0         
_________________________________________________________________
cu_dnnlstm_27 (CuDNNLSTM)    (None, 1, 200)            361600    
_________________________________________________________________
dropout_22 (Dropout)         (None, 1, 200)            0         
_________________________________________________________________
cu_dnnlstm_28 (CuDNNLSTM)    (None, 300)               602400    
_________________________________________________________________
dense_13 (Dense)             (None, 1)                 301       
_________________________________________________________________
activation_10 (Activation)   (None, 1)                 0         
=================================================================
Total params: 1,232,301
Trainable params: 1,232,301
Non-trainable params: 0
_________________________________________________________________
_________________________________________________________________
Layer (type)                 Output Shape              Param #   
=================================================================
dense_1 (Dense)              (None, 12)                204       
_________________________________________________________________
dense_2 (Dense)              (None, 8)                 104       
_________________________________________________________________
dense_3 (Dense)              (None, 1)                 9         
=================================================================
Total params: 317
Trainable params: 317
Non-trainable params: 0
_________________________________________________________________
_________________________________________________________________
Layer (type)                 Output Shape              Param #   
=================================================================
cu_dnnlstm_1 (CuDNNLSTM)     (None, 1, 50)             13600     
_________________________________________________________________
dropout_1 (Dropout)          (None, 1, 50)             0         
_________________________________________________________________
cu_dnnlstm_2 (CuDNNLSTM)     (None, 100)               60800     
_________________________________________________________________
dropout_2 (Dropout)          (None, 100)               0         
_________________________________________________________________
dense_4 (Dense)              (None, 1)                 101       
_________________________________________________________________
activation_1 (Activation)    (None, 1)                 0         
=================================================================
Total params: 74,501
Trainable params: 74,501
Non-trainable params: 0
_________________________________________________________________
_________________________________________________________________
Layer (type)                 Output Shape              Param #   
=================================================================
cu_dnnlstm_3 (CuDNNLSTM)     (None, 1, 50)             13600     
_________________________________________________________________
dropout_3 (Dropout)          (None, 1, 50)             0         
_________________________________________________________________
cu_dnnlstm_4 (CuDNNLSTM)     (None, 100)               60800     
_________________________________________________________________
dropout_4 (Dropout)          (None, 100)               0         
_________________________________________________________________
dense_5 (Dense)              (None, 1)                 101       
_________________________________________________________________
activation_2 (Activation)    (None, 1)                 0         
=================================================================
Total params: 74,501
Trainable params: 74,501
Non-trainable params: 0
_________________________________________________________________
_________________________________________________________________
Layer (type)                 Output Shape              Param #   
=================================================================
cu_dnnlstm_5 (CuDNNLSTM)     (None, 1, 50)             13600     
_________________________________________________________________
dropout_5 (Dropout)          (None, 1, 50)             0         
_________________________________________________________________
cu_dnnlstm_6 (CuDNNLSTM)     (None, 100)               60800     
_________________________________________________________________
dropout_6 (Dropout)          (None, 100)               0         
_________________________________________________________________
dense_6 (Dense)              (None, 1)                 101       
_________________________________________________________________
activation_3 (Activation)    (None, 1)                 0         
=================================================================
Total params: 74,501
Trainable params: 74,501
Non-trainable params: 0
_________________________________________________________________
_________________________________________________________________
Layer (type)                 Output Shape              Param #   
=================================================================
cu_dnnlstm_7 (CuDNNLSTM)     (None, 1, 50)             13600     
_________________________________________________________________
dropout_7 (Dropout)          (None, 1, 50)             0         
_________________________________________________________________
cu_dnnlstm_8 (CuDNNLSTM)     (None, 100)               60800     
_________________________________________________________________
dropout_8 (Dropout)          (None, 100)               0         
_________________________________________________________________
dense_7 (Dense)              (None, 1)                 101       
_________________________________________________________________
activation_4 (Activation)    (None, 1)                 0         
=================================================================
Total params: 74,501
Trainable params: 74,501
Non-trainable params: 0
_________________________________________________________________
_________________________________________________________________
Layer (type)                 Output Shape              Param #   
=================================================================
cu_dnnlstm_9 (CuDNNLSTM)     (None, 1, 50)             13600     
_________________________________________________________________
dropout_9 (Dropout)          (None, 1, 50)             0         
_________________________________________________________________
cu_dnnlstm_10 (CuDNNLSTM)    (None, 1, 100)            60800     
_________________________________________________________________
dropout_10 (Dropout)         (None, 1, 100)            0         
_________________________________________________________________
cu_dnnlstm_11 (CuDNNLSTM)    (None, 100)               80800     
_________________________________________________________________
dense_8 (Dense)              (None, 1)                 101       
_________________________________________________________________
activation_5 (Activation)    (None, 1)                 0         
=================================================================
Total params: 155,301
Trainable params: 155,301
Non-trainable params: 0
_________________________________________________________________
_________________________________________________________________
Layer (type)                 Output Shape              Param #   
=================================================================
cu_dnnlstm_12 (CuDNNLSTM)    (None, 1, 50)             13600     
_________________________________________________________________
dropout_11 (Dropout)         (None, 1, 50)             0         
_________________________________________________________________
cu_dnnlstm_13 (CuDNNLSTM)    (None, 1, 100)            60800     
_________________________________________________________________
dropout_12 (Dropout)         (None, 1, 100)            0         
_________________________________________________________________
cu_dnnlstm_14 (CuDNNLSTM)    (None, 100)               80800     
_________________________________________________________________
dense_9 (Dense)              (None, 1)                 101       
_________________________________________________________________
activation_6 (Activation)    (None, 1)                 0         
=================================================================
Total params: 155,301
Trainable params: 155,301
Non-trainable params: 0
_________________________________________________________________
_________________________________________________________________
Layer (type)                 Output Shape              Param #   
=================================================================
cu_dnnlstm_15 (CuDNNLSTM)    (None, 1, 150)            100800    
_________________________________________________________________
dropout_13 (Dropout)         (None, 1, 150)            0         
_________________________________________________________________
cu_dnnlstm_16 (CuDNNLSTM)    (None, 1, 250)            402000    
_________________________________________________________________
dropout_14 (Dropout)         (None, 1, 250)            0         
_________________________________________________________________
cu_dnnlstm_17 (CuDNNLSTM)    (None, 200)               361600    
_________________________________________________________________
dense_10 (Dense)             (None, 1)                 201       
_________________________________________________________________
activation_7 (Activation)    (None, 1)                 0         
=================================================================
Total params: 864,601
Trainable params: 864,601
Non-trainable params: 0
_________________________________________________________________
_________________________________________________________________
Layer (type)                 Output Shape              Param #   
=================================================================
cu_dnnlstm_18 (CuDNNLSTM)    (None, 1, 150)            100800    
_________________________________________________________________
dropout_15 (Dropout)         (None, 1, 150)            0         
_________________________________________________________________
cu_dnnlstm_19 (CuDNNLSTM)    (None, 1, 300)            542400    
_________________________________________________________________
dropout_16 (Dropout)         (None, 1, 300)            0         
_________________________________________________________________
cu_dnnlstm_20 (CuDNNLSTM)    (None, 1, 200)            401600    
_________________________________________________________________
dropout_17 (Dropout)         (None, 1, 200)            0         
_________________________________________________________________
cu_dnnlstm_21 (CuDNNLSTM)    (None, 450)               1173600   
_________________________________________________________________
dense_11 (Dense)             (None, 1)                 451       
_________________________________________________________________
activation_8 (Activation)    (None, 1)                 0         
=================================================================
Total params: 2,218,851
Trainable params: 2,218,851
Non-trainable params: 0
_________________________________________________________________
_________________________________________________________________
Layer (type)                 Output Shape              Param #   
=================================================================
cu_dnnlstm_22 (CuDNNLSTM)    (None, 1, 150)            100800    
_________________________________________________________________
dropout_18 (Dropout)         (None, 1, 150)            0         
_________________________________________________________________
cu_dnnlstm_23 (CuDNNLSTM)    (None, 1, 300)            542400    
_________________________________________________________________
dropout_19 (Dropout)         (None, 1, 300)            0         
_________________________________________________________________
cu_dnnlstm_24 (CuDNNLSTM)    (None, 1, 200)            401600    
_________________________________________________________________
dropout_20 (Dropout)         (None, 1, 200)            0         
_________________________________________________________________
cu_dnnlstm_25 (CuDNNLSTM)    (None, 450)               1173600   
_________________________________________________________________
dense_12 (Dense)             (None, 1)                 451       
_________________________________________________________________
activation_9 (Activation)    (None, 1)                 0         
=================================================================
Total params: 2,218,851
Trainable params: 2,218,851
Non-trainable params: 0
_________________________________________________________________
_________________________________________________________________
Layer (type)                 Output Shape              Param #   
=================================================================
cu_dnnlstm_26 (CuDNNLSTM)    (None, 1, 250)            268000    
_________________________________________________________________
dropout_21 (Dropout)         (None, 1, 250)            0         
_________________________________________________________________
cu_dnnlstm_27 (CuDNNLSTM)    (None, 1, 200)            361600    
_________________________________________________________________
dropout_22 (Dropout)         (None, 1, 200)            0         
_________________________________________________________________
cu_dnnlstm_28 (CuDNNLSTM)    (None, 300)               602400    
_________________________________________________________________
dense_13 (Dense)             (None, 1)                 301       
_________________________________________________________________
activation_10 (Activation)   (None, 1)                 0         
=================================================================
Total params: 1,232,301
Trainable params: 1,232,301
Non-trainable params: 0
_________________________________________________________________
_________________________________________________________________
Layer (type)                 Output Shape              Param #   
=================================================================
dense_1 (Dense)              (None, 12)                204       
_________________________________________________________________
dense_2 (Dense)              (None, 8)                 104       
_________________________________________________________________
dense_3 (Dense)              (None, 1)                 9         
=================================================================
Total params: 317
Trainable params: 317
Non-trainable params: 0
_________________________________________________________________
_________________________________________________________________
Layer (type)                 Output Shape              Param #   
=================================================================
cu_dnnlstm_1 (CuDNNLSTM)     (None, 1, 50)             13600     
_________________________________________________________________
dropout_1 (Dropout)          (None, 1, 50)             0         
_________________________________________________________________
cu_dnnlstm_2 (CuDNNLSTM)     (None, 100)               60800     
_________________________________________________________________
dropout_2 (Dropout)          (None, 100)               0         
_________________________________________________________________
dense_4 (Dense)              (None, 1)                 101       
_________________________________________________________________
activation_1 (Activation)    (None, 1)                 0         
=================================================================
Total params: 74,501
Trainable params: 74,501
Non-trainable params: 0
_________________________________________________________________
_________________________________________________________________
Layer (type)                 Output Shape              Param #   
=================================================================
cu_dnnlstm_3 (CuDNNLSTM)     (None, 1, 50)             13600     
_________________________________________________________________
dropout_3 (Dropout)          (None, 1, 50)             0         
_________________________________________________________________
cu_dnnlstm_4 (CuDNNLSTM)     (None, 100)               60800     
_________________________________________________________________
dropout_4 (Dropout)          (None, 100)               0         
_________________________________________________________________
dense_5 (Dense)              (None, 1)                 101       
_________________________________________________________________
activation_2 (Activation)    (None, 1)                 0         
=================================================================
Total params: 74,501
Trainable params: 74,501
Non-trainable params: 0
_________________________________________________________________
_________________________________________________________________
Layer (type)                 Output Shape              Param #   
=================================================================
cu_dnnlstm_5 (CuDNNLSTM)     (None, 1, 50)             13600     
_________________________________________________________________
dropout_5 (Dropout)          (None, 1, 50)             0         
_________________________________________________________________
cu_dnnlstm_6 (CuDNNLSTM)     (None, 100)               60800     
_________________________________________________________________
dropout_6 (Dropout)          (None, 100)               0         
_________________________________________________________________
dense_6 (Dense)              (None, 1)                 101       
_________________________________________________________________
activation_3 (Activation)    (None, 1)                 0         
=================================================================
Total params: 74,501
Trainable params: 74,501
Non-trainable params: 0
_________________________________________________________________
_________________________________________________________________
Layer (type)                 Output Shape              Param #   
=================================================================
cu_dnnlstm_7 (CuDNNLSTM)     (None, 1, 50)             13600     
_________________________________________________________________
dropout_7 (Dropout)          (None, 1, 50)             0         
_________________________________________________________________
cu_dnnlstm_8 (CuDNNLSTM)     (None, 100)               60800     
_________________________________________________________________
dropout_8 (Dropout)          (None, 100)               0         
_________________________________________________________________
dense_7 (Dense)              (None, 1)                 101       
_________________________________________________________________
activation_4 (Activation)    (None, 1)                 0         
=================================================================
Total params: 74,501
Trainable params: 74,501
Non-trainable params: 0
_________________________________________________________________
_________________________________________________________________
Layer (type)                 Output Shape              Param #   
=================================================================
cu_dnnlstm_9 (CuDNNLSTM)     (None, 1, 50)             13600     
_________________________________________________________________
dropout_9 (Dropout)          (None, 1, 50)             0         
_________________________________________________________________
cu_dnnlstm_10 (CuDNNLSTM)    (None, 1, 100)            60800     
_________________________________________________________________
dropout_10 (Dropout)         (None, 1, 100)            0         
_________________________________________________________________
cu_dnnlstm_11 (CuDNNLSTM)    (None, 100)               80800     
_________________________________________________________________
dense_8 (Dense)              (None, 1)                 101       
_________________________________________________________________
activation_5 (Activation)    (None, 1)                 0         
=================================================================
Total params: 155,301
Trainable params: 155,301
Non-trainable params: 0
_________________________________________________________________
_________________________________________________________________
Layer (type)                 Output Shape              Param #   
=================================================================
cu_dnnlstm_12 (CuDNNLSTM)    (None, 1, 50)             13600     
_________________________________________________________________
dropout_11 (Dropout)         (None, 1, 50)             0         
_________________________________________________________________
cu_dnnlstm_13 (CuDNNLSTM)    (None, 1, 100)            60800     
_________________________________________________________________
dropout_12 (Dropout)         (None, 1, 100)            0         
_________________________________________________________________
cu_dnnlstm_14 (CuDNNLSTM)    (None, 100)               80800     
_________________________________________________________________
dense_9 (Dense)              (None, 1)                 101       
_________________________________________________________________
activation_6 (Activation)    (None, 1)                 0         
=================================================================
Total params: 155,301
Trainable params: 155,301
Non-trainable params: 0
_________________________________________________________________
_________________________________________________________________
Layer (type)                 Output Shape              Param #   
=================================================================
cu_dnnlstm_15 (CuDNNLSTM)    (None, 1, 150)            100800    
_________________________________________________________________
dropout_13 (Dropout)         (None, 1, 150)            0         
_________________________________________________________________
cu_dnnlstm_16 (CuDNNLSTM)    (None, 1, 250)            402000    
_________________________________________________________________
dropout_14 (Dropout)         (None, 1, 250)            0         
_________________________________________________________________
cu_dnnlstm_17 (CuDNNLSTM)    (None, 200)               361600    
_________________________________________________________________
dense_10 (Dense)             (None, 1)                 201       
_________________________________________________________________
activation_7 (Activation)    (None, 1)                 0         
=================================================================
Total params: 864,601
Trainable params: 864,601
Non-trainable params: 0
_________________________________________________________________
_________________________________________________________________
Layer (type)                 Output Shape              Param #   
=================================================================
cu_dnnlstm_18 (CuDNNLSTM)    (None, 1, 150)            100800    
_________________________________________________________________
dropout_15 (Dropout)         (None, 1, 150)            0         
_________________________________________________________________
cu_dnnlstm_19 (CuDNNLSTM)    (None, 1, 300)            542400    
_________________________________________________________________
dropout_16 (Dropout)         (None, 1, 300)            0         
_________________________________________________________________
cu_dnnlstm_20 (CuDNNLSTM)    (None, 1, 200)            401600    
_________________________________________________________________
dropout_17 (Dropout)         (None, 1, 200)            0         
_________________________________________________________________
cu_dnnlstm_21 (CuDNNLSTM)    (None, 450)               1173600   
_________________________________________________________________
dense_11 (Dense)             (None, 1)                 451       
_________________________________________________________________
activation_8 (Activation)    (None, 1)                 0         
=================================================================
Total params: 2,218,851
Trainable params: 2,218,851
Non-trainable params: 0
_________________________________________________________________
_________________________________________________________________
Layer (type)                 Output Shape              Param #   
=================================================================
cu_dnnlstm_22 (CuDNNLSTM)    (None, 1, 150)            100800    
_________________________________________________________________
dropout_18 (Dropout)         (None, 1, 150)            0         
_________________________________________________________________
cu_dnnlstm_23 (CuDNNLSTM)    (None, 1, 300)            542400    
_________________________________________________________________
dropout_19 (Dropout)         (None, 1, 300)            0         
_________________________________________________________________
cu_dnnlstm_24 (CuDNNLSTM)    (None, 1, 200)            401600    
_________________________________________________________________
dropout_20 (Dropout)         (None, 1, 200)            0         
_________________________________________________________________
cu_dnnlstm_25 (CuDNNLSTM)    (None, 450)               1173600   
_________________________________________________________________
dense_12 (Dense)             (None, 1)                 451       
_________________________________________________________________
activation_9 (Activation)    (None, 1)                 0         
=================================================================
Total params: 2,218,851
Trainable params: 2,218,851
Non-trainable params: 0
_________________________________________________________________
_________________________________________________________________
Layer (type)                 Output Shape              Param #   
=================================================================
cu_dnnlstm_26 (CuDNNLSTM)    (None, 1, 250)            268000    
_________________________________________________________________
dropout_21 (Dropout)         (None, 1, 250)            0         
_________________________________________________________________
cu_dnnlstm_27 (CuDNNLSTM)    (None, 1, 200)            361600    
_________________________________________________________________
dropout_22 (Dropout)         (None, 1, 200)            0         
_________________________________________________________________
cu_dnnlstm_28 (CuDNNLSTM)    (None, 300)               602400    
_________________________________________________________________
dense_13 (Dense)             (None, 1)                 301       
_________________________________________________________________
activation_10 (Activation)   (None, 1)                 0         
=================================================================
Total params: 1,232,301
Trainable params: 1,232,301
Non-trainable params: 0
_________________________________________________________________
_________________________________________________________________
Layer (type)                 Output Shape              Param #   
=================================================================
dense_1 (Dense)              (None, 12)                204       
_________________________________________________________________
dense_2 (Dense)              (None, 8)                 104       
_________________________________________________________________
dense_3 (Dense)              (None, 1)                 9         
=================================================================
Total params: 317
Trainable params: 317
Non-trainable params: 0
_________________________________________________________________
_________________________________________________________________
Layer (type)                 Output Shape              Param #   
=================================================================
cu_dnnlstm_1 (CuDNNLSTM)     (None, 1, 50)             13600     
_________________________________________________________________
dropout_1 (Dropout)          (None, 1, 50)             0         
_________________________________________________________________
cu_dnnlstm_2 (CuDNNLSTM)     (None, 100)               60800     
_________________________________________________________________
dropout_2 (Dropout)          (None, 100)               0         
_________________________________________________________________
dense_4 (Dense)              (None, 1)                 101       
_________________________________________________________________
activation_1 (Activation)    (None, 1)                 0         
=================================================================
Total params: 74,501
Trainable params: 74,501
Non-trainable params: 0
_________________________________________________________________
_________________________________________________________________
Layer (type)                 Output Shape              Param #   
=================================================================
cu_dnnlstm_3 (CuDNNLSTM)     (None, 1, 50)             13600     
_________________________________________________________________
dropout_3 (Dropout)          (None, 1, 50)             0         
_________________________________________________________________
cu_dnnlstm_4 (CuDNNLSTM)     (None, 100)               60800     
_________________________________________________________________
dropout_4 (Dropout)          (None, 100)               0         
_________________________________________________________________
dense_5 (Dense)              (None, 1)                 101       
_________________________________________________________________
activation_2 (Activation)    (None, 1)                 0         
=================================================================
Total params: 74,501
Trainable params: 74,501
Non-trainable params: 0
_________________________________________________________________
_________________________________________________________________
Layer (type)                 Output Shape              Param #   
=================================================================
cu_dnnlstm_5 (CuDNNLSTM)     (None, 1, 50)             13600     
_________________________________________________________________
dropout_5 (Dropout)          (None, 1, 50)             0         
_________________________________________________________________
cu_dnnlstm_6 (CuDNNLSTM)     (None, 100)               60800     
_________________________________________________________________
dropout_6 (Dropout)          (None, 100)               0         
_________________________________________________________________
dense_6 (Dense)              (None, 1)                 101       
_________________________________________________________________
activation_3 (Activation)    (None, 1)                 0         
=================================================================
Total params: 74,501
Trainable params: 74,501
Non-trainable params: 0
_________________________________________________________________
_________________________________________________________________
Layer (type)                 Output Shape              Param #   
=================================================================
cu_dnnlstm_7 (CuDNNLSTM)     (None, 1, 50)             13600     
_________________________________________________________________
dropout_7 (Dropout)          (None, 1, 50)             0         
_________________________________________________________________
cu_dnnlstm_8 (CuDNNLSTM)     (None, 100)               60800     
_________________________________________________________________
dropout_8 (Dropout)          (None, 100)               0         
_________________________________________________________________
dense_7 (Dense)              (None, 1)                 101       
_________________________________________________________________
activation_4 (Activation)    (None, 1)                 0         
=================================================================
Total params: 74,501
Trainable params: 74,501
Non-trainable params: 0
_________________________________________________________________
_________________________________________________________________
Layer (type)                 Output Shape              Param #   
=================================================================
cu_dnnlstm_9 (CuDNNLSTM)     (None, 1, 50)             13600     
_________________________________________________________________
dropout_9 (Dropout)          (None, 1, 50)             0         
_________________________________________________________________
cu_dnnlstm_10 (CuDNNLSTM)    (None, 1, 100)            60800     
_________________________________________________________________
dropout_10 (Dropout)         (None, 1, 100)            0         
_________________________________________________________________
cu_dnnlstm_11 (CuDNNLSTM)    (None, 100)               80800     
_________________________________________________________________
dense_8 (Dense)              (None, 1)                 101       
_________________________________________________________________
activation_5 (Activation)    (None, 1)                 0         
=================================================================
Total params: 155,301
Trainable params: 155,301
Non-trainable params: 0
_________________________________________________________________
_________________________________________________________________
Layer (type)                 Output Shape              Param #   
=================================================================
cu_dnnlstm_12 (CuDNNLSTM)    (None, 1, 50)             13600     
_________________________________________________________________
dropout_11 (Dropout)         (None, 1, 50)             0         
_________________________________________________________________
cu_dnnlstm_13 (CuDNNLSTM)    (None, 1, 100)            60800     
_________________________________________________________________
dropout_12 (Dropout)         (None, 1, 100)            0         
_________________________________________________________________
cu_dnnlstm_14 (CuDNNLSTM)    (None, 100)               80800     
_________________________________________________________________
dense_9 (Dense)              (None, 1)                 101       
_________________________________________________________________
activation_6 (Activation)    (None, 1)                 0         
=================================================================
Total params: 155,301
Trainable params: 155,301
Non-trainable params: 0
_________________________________________________________________
_________________________________________________________________
Layer (type)                 Output Shape              Param #   
=================================================================
cu_dnnlstm_15 (CuDNNLSTM)    (None, 1, 150)            100800    
_________________________________________________________________
dropout_13 (Dropout)         (None, 1, 150)            0         
_________________________________________________________________
cu_dnnlstm_16 (CuDNNLSTM)    (None, 1, 250)            402000    
_________________________________________________________________
dropout_14 (Dropout)         (None, 1, 250)            0         
_________________________________________________________________
cu_dnnlstm_17 (CuDNNLSTM)    (None, 200)               361600    
_________________________________________________________________
dense_10 (Dense)             (None, 1)                 201       
_________________________________________________________________
activation_7 (Activation)    (None, 1)                 0         
=================================================================
Total params: 864,601
Trainable params: 864,601
Non-trainable params: 0
_________________________________________________________________
_________________________________________________________________
Layer (type)                 Output Shape              Param #   
=================================================================
cu_dnnlstm_18 (CuDNNLSTM)    (None, 1, 150)            100800    
_________________________________________________________________
dropout_15 (Dropout)         (None, 1, 150)            0         
_________________________________________________________________
cu_dnnlstm_19 (CuDNNLSTM)    (None, 1, 300)            542400    
_________________________________________________________________
dropout_16 (Dropout)         (None, 1, 300)            0         
_________________________________________________________________
cu_dnnlstm_20 (CuDNNLSTM)    (None, 1, 200)            401600    
_________________________________________________________________
dropout_17 (Dropout)         (None, 1, 200)            0         
_________________________________________________________________
cu_dnnlstm_21 (CuDNNLSTM)    (None, 450)               1173600   
_________________________________________________________________
dense_11 (Dense)             (None, 1)                 451       
_________________________________________________________________
activation_8 (Activation)    (None, 1)                 0         
=================================================================
Total params: 2,218,851
Trainable params: 2,218,851
Non-trainable params: 0
_________________________________________________________________
_________________________________________________________________
Layer (type)                 Output Shape              Param #   
=================================================================
cu_dnnlstm_22 (CuDNNLSTM)    (None, 1, 150)            100800    
_________________________________________________________________
dropout_18 (Dropout)         (None, 1, 150)            0         
_________________________________________________________________
cu_dnnlstm_23 (CuDNNLSTM)    (None, 1, 300)            542400    
_________________________________________________________________
dropout_19 (Dropout)         (None, 1, 300)            0         
_________________________________________________________________
cu_dnnlstm_24 (CuDNNLSTM)    (None, 1, 200)            401600    
_________________________________________________________________
dropout_20 (Dropout)         (None, 1, 200)            0         
_________________________________________________________________
cu_dnnlstm_25 (CuDNNLSTM)    (None, 450)               1173600   
_________________________________________________________________
dense_12 (Dense)             (None, 1)                 451       
_________________________________________________________________
activation_9 (Activation)    (None, 1)                 0         
=================================================================
Total params: 2,218,851
Trainable params: 2,218,851
Non-trainable params: 0
_________________________________________________________________
_________________________________________________________________
Layer (type)                 Output Shape              Param #   
=================================================================
cu_dnnlstm_26 (CuDNNLSTM)    (None, 1, 250)            268000    
_________________________________________________________________
dropout_21 (Dropout)         (None, 1, 250)            0         
_________________________________________________________________
cu_dnnlstm_27 (CuDNNLSTM)    (None, 1, 200)            361600    
_________________________________________________________________
dropout_22 (Dropout)         (None, 1, 200)            0         
_________________________________________________________________
cu_dnnlstm_28 (CuDNNLSTM)    (None, 300)               602400    
_________________________________________________________________
dense_13 (Dense)             (None, 1)                 301       
_________________________________________________________________
activation_10 (Activation)   (None, 1)                 0         
=================================================================
Total params: 1,232,301
Trainable params: 1,232,301
Non-trainable params: 0
_________________________________________________________________
