_________________________________________________________________
Layer (type)                 Output Shape              Param #   
=================================================================
dense_1 (Dense)              (None, 12)                204       
_________________________________________________________________
dense_2 (Dense)              (None, 8)                 104       
_________________________________________________________________
dense_3 (Dense)              (None, 1)                 9         
=================================================================
Total params: 317
Trainable params: 317
Non-trainable params: 0
_________________________________________________________________
_________________________________________________________________
Layer (type)                 Output Shape              Param #   
=================================================================
lstm_1 (LSTM)                (None, 1, 50)             13400     
_________________________________________________________________
dropout_1 (Dropout)          (None, 1, 50)             0         
_________________________________________________________________
lstm_2 (LSTM)                (None, 100)               60400     
_________________________________________________________________
dropout_2 (Dropout)          (None, 100)               0         
_________________________________________________________________
dense_4 (Dense)              (None, 1)                 101       
_________________________________________________________________
activation_1 (Activation)    (None, 1)                 0         
=================================================================
Total params: 73,901
Trainable params: 73,901
Non-trainable params: 0
_________________________________________________________________
_________________________________________________________________
Layer (type)                 Output Shape              Param #   
=================================================================
lstm_3 (LSTM)                (None, 1, 50)             13400     
_________________________________________________________________
dropout_3 (Dropout)          (None, 1, 50)             0         
_________________________________________________________________
lstm_4 (LSTM)                (None, 100)               60400     
_________________________________________________________________
dropout_4 (Dropout)          (None, 100)               0         
_________________________________________________________________
dense_5 (Dense)              (None, 1)                 101       
_________________________________________________________________
activation_2 (Activation)    (None, 1)                 0         
=================================================================
Total params: 73,901
Trainable params: 73,901
Non-trainable params: 0
_________________________________________________________________
_________________________________________________________________
Layer (type)                 Output Shape              Param #   
=================================================================
lstm_5 (LSTM)                (None, 1, 50)             13400     
_________________________________________________________________
dropout_5 (Dropout)          (None, 1, 50)             0         
_________________________________________________________________
lstm_6 (LSTM)                (None, 1, 100)            60400     
_________________________________________________________________
dropout_6 (Dropout)          (None, 1, 100)            0         
_________________________________________________________________
lstm_7 (LSTM)                (None, 100)               80400     
_________________________________________________________________
dense_6 (Dense)              (None, 1)                 101       
_________________________________________________________________
activation_3 (Activation)    (None, 1)                 0         
=================================================================
Total params: 154,301
Trainable params: 154,301
Non-trainable params: 0
_________________________________________________________________
_________________________________________________________________
Layer (type)                 Output Shape              Param #   
=================================================================
lstm_8 (LSTM)                (None, 1, 150)            100200    
_________________________________________________________________
dropout_7 (Dropout)          (None, 1, 150)            0         
_________________________________________________________________
lstm_9 (LSTM)                (None, 1, 250)            401000    
_________________________________________________________________
dropout_8 (Dropout)          (None, 1, 250)            0         
_________________________________________________________________
lstm_10 (LSTM)               (None, 200)               360800    
_________________________________________________________________
dense_7 (Dense)              (None, 1)                 201       
_________________________________________________________________
activation_4 (Activation)    (None, 1)                 0         
=================================================================
Total params: 862,201
Trainable params: 862,201
Non-trainable params: 0
_________________________________________________________________
_________________________________________________________________
Layer (type)                 Output Shape              Param #   
=================================================================
lstm_11 (LSTM)               (None, 1, 150)            100200    
_________________________________________________________________
dropout_9 (Dropout)          (None, 1, 150)            0         
_________________________________________________________________
lstm_12 (LSTM)               (None, 1, 300)            541200    
_________________________________________________________________
dropout_10 (Dropout)         (None, 1, 300)            0         
_________________________________________________________________
lstm_13 (LSTM)               (None, 200)               400800    
_________________________________________________________________
dense_8 (Dense)              (None, 1)                 201       
_________________________________________________________________
activation_5 (Activation)    (None, 1)                 0         
=================================================================
Total params: 1,042,401
Trainable params: 1,042,401
Non-trainable params: 0
_________________________________________________________________
_________________________________________________________________
Layer (type)                 Output Shape              Param #   
=================================================================
lstm_14 (LSTM)               (None, 1, 150)            100200    
_________________________________________________________________
dropout_11 (Dropout)         (None, 1, 150)            0         
_________________________________________________________________
lstm_15 (LSTM)               (None, 1, 300)            541200    
_________________________________________________________________
dropout_12 (Dropout)         (None, 1, 300)            0         
_________________________________________________________________
lstm_16 (LSTM)               (None, 1, 200)            400800    
_________________________________________________________________
dropout_13 (Dropout)         (None, 1, 200)            0         
_________________________________________________________________
lstm_17 (LSTM)               (None, 450)               1171800   
_________________________________________________________________
dense_9 (Dense)              (None, 1)                 451       
_________________________________________________________________
activation_6 (Activation)    (None, 1)                 0         
=================================================================
Total params: 2,214,451
Trainable params: 2,214,451
Non-trainable params: 0
_________________________________________________________________
_________________________________________________________________
Layer (type)                 Output Shape              Param #   
=================================================================
dense_1 (Dense)              (None, 12)                204       
_________________________________________________________________
dense_2 (Dense)              (None, 8)                 104       
_________________________________________________________________
dense_3 (Dense)              (None, 1)                 9         
=================================================================
Total params: 317
Trainable params: 317
Non-trainable params: 0
_________________________________________________________________
_________________________________________________________________
Layer (type)                 Output Shape              Param #   
=================================================================
cu_dnnlstm_1 (CuDNNLSTM)     (None, 1, 50)             13600     
_________________________________________________________________
dropout_1 (Dropout)          (None, 1, 50)             0         
_________________________________________________________________
cu_dnnlstm_2 (CuDNNLSTM)     (None, 100)               60800     
_________________________________________________________________
dropout_2 (Dropout)          (None, 100)               0         
_________________________________________________________________
dense_4 (Dense)              (None, 1)                 101       
_________________________________________________________________
activation_1 (Activation)    (None, 1)                 0         
=================================================================
Total params: 74,501
Trainable params: 74,501
Non-trainable params: 0
_________________________________________________________________
_________________________________________________________________
Layer (type)                 Output Shape              Param #   
=================================================================
cu_dnnlstm_3 (CuDNNLSTM)     (None, 1, 50)             13600     
_________________________________________________________________
dropout_3 (Dropout)          (None, 1, 50)             0         
_________________________________________________________________
cu_dnnlstm_4 (CuDNNLSTM)     (None, 100)               60800     
_________________________________________________________________
dropout_4 (Dropout)          (None, 100)               0         
_________________________________________________________________
dense_5 (Dense)              (None, 1)                 101       
_________________________________________________________________
activation_2 (Activation)    (None, 1)                 0         
=================================================================
Total params: 74,501
Trainable params: 74,501
Non-trainable params: 0
_________________________________________________________________
_________________________________________________________________
Layer (type)                 Output Shape              Param #   
=================================================================
cu_dnnlstm_5 (CuDNNLSTM)     (None, 1, 50)             13600     
_________________________________________________________________
dropout_5 (Dropout)          (None, 1, 50)             0         
_________________________________________________________________
cu_dnnlstm_6 (CuDNNLSTM)     (None, 1, 100)            60800     
_________________________________________________________________
dropout_6 (Dropout)          (None, 1, 100)            0         
_________________________________________________________________
cu_dnnlstm_7 (CuDNNLSTM)     (None, 100)               80800     
_________________________________________________________________
dense_6 (Dense)              (None, 1)                 101       
_________________________________________________________________
activation_3 (Activation)    (None, 1)                 0         
=================================================================
Total params: 155,301
Trainable params: 155,301
Non-trainable params: 0
_________________________________________________________________
_________________________________________________________________
Layer (type)                 Output Shape              Param #   
=================================================================
cu_dnnlstm_8 (CuDNNLSTM)     (None, 1, 150)            100800    
_________________________________________________________________
dropout_7 (Dropout)          (None, 1, 150)            0         
_________________________________________________________________
cu_dnnlstm_9 (CuDNNLSTM)     (None, 1, 250)            402000    
_________________________________________________________________
dropout_8 (Dropout)          (None, 1, 250)            0         
_________________________________________________________________
cu_dnnlstm_10 (CuDNNLSTM)    (None, 200)               361600    
_________________________________________________________________
dense_7 (Dense)              (None, 1)                 201       
_________________________________________________________________
activation_4 (Activation)    (None, 1)                 0         
=================================================================
Total params: 864,601
Trainable params: 864,601
Non-trainable params: 0
_________________________________________________________________
_________________________________________________________________
Layer (type)                 Output Shape              Param #   
=================================================================
cu_dnnlstm_11 (CuDNNLSTM)    (None, 1, 150)            100800    
_________________________________________________________________
dropout_9 (Dropout)          (None, 1, 150)            0         
_________________________________________________________________
cu_dnnlstm_12 (CuDNNLSTM)    (None, 1, 300)            542400    
_________________________________________________________________
dropout_10 (Dropout)         (None, 1, 300)            0         
_________________________________________________________________
cu_dnnlstm_13 (CuDNNLSTM)    (None, 200)               401600    
_________________________________________________________________
dense_8 (Dense)              (None, 1)                 201       
_________________________________________________________________
activation_5 (Activation)    (None, 1)                 0         
=================================================================
Total params: 1,045,001
Trainable params: 1,045,001
Non-trainable params: 0
_________________________________________________________________
_________________________________________________________________
Layer (type)                 Output Shape              Param #   
=================================================================
cu_dnnlstm_14 (CuDNNLSTM)    (None, 1, 150)            100800    
_________________________________________________________________
dropout_11 (Dropout)         (None, 1, 150)            0         
_________________________________________________________________
cu_dnnlstm_15 (CuDNNLSTM)    (None, 1, 300)            542400    
_________________________________________________________________
dropout_12 (Dropout)         (None, 1, 300)            0         
_________________________________________________________________
cu_dnnlstm_16 (CuDNNLSTM)    (None, 1, 200)            401600    
_________________________________________________________________
dropout_13 (Dropout)         (None, 1, 200)            0         
_________________________________________________________________
cu_dnnlstm_17 (CuDNNLSTM)    (None, 450)               1173600   
_________________________________________________________________
dense_9 (Dense)              (None, 1)                 451       
_________________________________________________________________
activation_6 (Activation)    (None, 1)                 0         
=================================================================
Total params: 2,218,851
Trainable params: 2,218,851
Non-trainable params: 0
_________________________________________________________________
_________________________________________________________________
Layer (type)                 Output Shape              Param #   
=================================================================
cu_dnnlstm_18 (CuDNNLSTM)    (None, 1, 150)            100800    
_________________________________________________________________
dropout_14 (Dropout)         (None, 1, 150)            0         
_________________________________________________________________
cu_dnnlstm_19 (CuDNNLSTM)    (None, 1, 300)            542400    
_________________________________________________________________
dropout_15 (Dropout)         (None, 1, 300)            0         
_________________________________________________________________
cu_dnnlstm_20 (CuDNNLSTM)    (None, 1, 200)            401600    
_________________________________________________________________
dropout_16 (Dropout)         (None, 1, 200)            0         
_________________________________________________________________
cu_dnnlstm_21 (CuDNNLSTM)    (None, 450)               1173600   
_________________________________________________________________
dense_10 (Dense)             (None, 1)                 451       
_________________________________________________________________
activation_7 (Activation)    (None, 1)                 0         
=================================================================
Total params: 2,218,851
Trainable params: 2,218,851
Non-trainable params: 0
_________________________________________________________________
_________________________________________________________________
Layer (type)                 Output Shape              Param #   
=================================================================
cu_dnnlstm_22 (CuDNNLSTM)    (None, 1, 250)            268000    
_________________________________________________________________
dropout_17 (Dropout)         (None, 1, 250)            0         
_________________________________________________________________
cu_dnnlstm_23 (CuDNNLSTM)    (None, 1, 200)            361600    
_________________________________________________________________
dropout_18 (Dropout)         (None, 1, 200)            0         
_________________________________________________________________
cu_dnnlstm_24 (CuDNNLSTM)    (None, 300)               602400    
_________________________________________________________________
dense_11 (Dense)             (None, 1)                 301       
_________________________________________________________________
activation_8 (Activation)    (None, 1)                 0         
=================================================================
Total params: 1,232,301
Trainable params: 1,232,301
Non-trainable params: 0
_________________________________________________________________
_________________________________________________________________
Layer (type)                 Output Shape              Param #   
=================================================================
dense_12 (Dense)             (None, 12)                204       
_________________________________________________________________
dense_13 (Dense)             (None, 8)                 104       
_________________________________________________________________
dense_14 (Dense)             (None, 1)                 9         
=================================================================
Total params: 317
Trainable params: 317
Non-trainable params: 0
_________________________________________________________________
_________________________________________________________________
Layer (type)                 Output Shape              Param #   
=================================================================
cu_dnnlstm_25 (CuDNNLSTM)    (None, 1, 50)             13600     
_________________________________________________________________
dropout_19 (Dropout)         (None, 1, 50)             0         
_________________________________________________________________
cu_dnnlstm_26 (CuDNNLSTM)    (None, 100)               60800     
_________________________________________________________________
dropout_20 (Dropout)         (None, 100)               0         
_________________________________________________________________
dense_15 (Dense)             (None, 1)                 101       
_________________________________________________________________
activation_9 (Activation)    (None, 1)                 0         
=================================================================
Total params: 74,501
Trainable params: 74,501
Non-trainable params: 0
_________________________________________________________________
_________________________________________________________________
Layer (type)                 Output Shape              Param #   
=================================================================
cu_dnnlstm_27 (CuDNNLSTM)    (None, 1, 50)             13600     
_________________________________________________________________
dropout_21 (Dropout)         (None, 1, 50)             0         
_________________________________________________________________
cu_dnnlstm_28 (CuDNNLSTM)    (None, 100)               60800     
_________________________________________________________________
dropout_22 (Dropout)         (None, 100)               0         
_________________________________________________________________
dense_16 (Dense)             (None, 1)                 101       
_________________________________________________________________
activation_10 (Activation)   (None, 1)                 0         
=================================================================
Total params: 74,501
Trainable params: 74,501
Non-trainable params: 0
_________________________________________________________________
_________________________________________________________________
Layer (type)                 Output Shape              Param #   
=================================================================
cu_dnnlstm_29 (CuDNNLSTM)    (None, 1, 50)             13600     
_________________________________________________________________
dropout_23 (Dropout)         (None, 1, 50)             0         
_________________________________________________________________
cu_dnnlstm_30 (CuDNNLSTM)    (None, 1, 100)            60800     
_________________________________________________________________
dropout_24 (Dropout)         (None, 1, 100)            0         
_________________________________________________________________
cu_dnnlstm_31 (CuDNNLSTM)    (None, 100)               80800     
_________________________________________________________________
dense_17 (Dense)             (None, 1)                 101       
_________________________________________________________________
activation_11 (Activation)   (None, 1)                 0         
=================================================================
Total params: 155,301
Trainable params: 155,301
Non-trainable params: 0
_________________________________________________________________
_________________________________________________________________
Layer (type)                 Output Shape              Param #   
=================================================================
cu_dnnlstm_32 (CuDNNLSTM)    (None, 1, 150)            100800    
_________________________________________________________________
dropout_25 (Dropout)         (None, 1, 150)            0         
_________________________________________________________________
cu_dnnlstm_33 (CuDNNLSTM)    (None, 1, 250)            402000    
_________________________________________________________________
dropout_26 (Dropout)         (None, 1, 250)            0         
_________________________________________________________________
cu_dnnlstm_34 (CuDNNLSTM)    (None, 200)               361600    
_________________________________________________________________
dense_18 (Dense)             (None, 1)                 201       
_________________________________________________________________
activation_12 (Activation)   (None, 1)                 0         
=================================================================
Total params: 864,601
Trainable params: 864,601
Non-trainable params: 0
_________________________________________________________________
_________________________________________________________________
Layer (type)                 Output Shape              Param #   
=================================================================
cu_dnnlstm_35 (CuDNNLSTM)    (None, 1, 150)            100800    
_________________________________________________________________
dropout_27 (Dropout)         (None, 1, 150)            0         
_________________________________________________________________
cu_dnnlstm_36 (CuDNNLSTM)    (None, 1, 300)            542400    
_________________________________________________________________
dropout_28 (Dropout)         (None, 1, 300)            0         
_________________________________________________________________
cu_dnnlstm_37 (CuDNNLSTM)    (None, 200)               401600    
_________________________________________________________________
dense_19 (Dense)             (None, 1)                 201       
_________________________________________________________________
activation_13 (Activation)   (None, 1)                 0         
=================================================================
Total params: 1,045,001
Trainable params: 1,045,001
Non-trainable params: 0
_________________________________________________________________
_________________________________________________________________
Layer (type)                 Output Shape              Param #   
=================================================================
cu_dnnlstm_38 (CuDNNLSTM)    (None, 1, 150)            100800    
_________________________________________________________________
dropout_29 (Dropout)         (None, 1, 150)            0         
_________________________________________________________________
cu_dnnlstm_39 (CuDNNLSTM)    (None, 1, 300)            542400    
_________________________________________________________________
dropout_30 (Dropout)         (None, 1, 300)            0         
_________________________________________________________________
cu_dnnlstm_40 (CuDNNLSTM)    (None, 1, 200)            401600    
_________________________________________________________________
dropout_31 (Dropout)         (None, 1, 200)            0         
_________________________________________________________________
cu_dnnlstm_41 (CuDNNLSTM)    (None, 450)               1173600   
_________________________________________________________________
dense_20 (Dense)             (None, 1)                 451       
_________________________________________________________________
activation_14 (Activation)   (None, 1)                 0         
=================================================================
Total params: 2,218,851
Trainable params: 2,218,851
Non-trainable params: 0
_________________________________________________________________
_________________________________________________________________
Layer (type)                 Output Shape              Param #   
=================================================================
cu_dnnlstm_42 (CuDNNLSTM)    (None, 1, 150)            100800    
_________________________________________________________________
dropout_32 (Dropout)         (None, 1, 150)            0         
_________________________________________________________________
cu_dnnlstm_43 (CuDNNLSTM)    (None, 1, 300)            542400    
_________________________________________________________________
dropout_33 (Dropout)         (None, 1, 300)            0         
_________________________________________________________________
cu_dnnlstm_44 (CuDNNLSTM)    (None, 1, 200)            401600    
_________________________________________________________________
dropout_34 (Dropout)         (None, 1, 200)            0         
_________________________________________________________________
cu_dnnlstm_45 (CuDNNLSTM)    (None, 450)               1173600   
_________________________________________________________________
dense_21 (Dense)             (None, 1)                 451       
_________________________________________________________________
activation_15 (Activation)   (None, 1)                 0         
=================================================================
Total params: 2,218,851
Trainable params: 2,218,851
Non-trainable params: 0
_________________________________________________________________
_________________________________________________________________
Layer (type)                 Output Shape              Param #   
=================================================================
cu_dnnlstm_46 (CuDNNLSTM)    (None, 1, 250)            268000    
_________________________________________________________________
dropout_35 (Dropout)         (None, 1, 250)            0         
_________________________________________________________________
cu_dnnlstm_47 (CuDNNLSTM)    (None, 1, 200)            361600    
_________________________________________________________________
dropout_36 (Dropout)         (None, 1, 200)            0         
_________________________________________________________________
cu_dnnlstm_48 (CuDNNLSTM)    (None, 300)               602400    
_________________________________________________________________
dense_22 (Dense)             (None, 1)                 301       
_________________________________________________________________
activation_16 (Activation)   (None, 1)                 0         
=================================================================
Total params: 1,232,301
Trainable params: 1,232,301
Non-trainable params: 0
_________________________________________________________________
_________________________________________________________________
Layer (type)                 Output Shape              Param #   
=================================================================
dense_23 (Dense)             (None, 12)                204       
_________________________________________________________________
dense_24 (Dense)             (None, 8)                 104       
_________________________________________________________________
dense_25 (Dense)             (None, 1)                 9         
=================================================================
Total params: 317
Trainable params: 317
Non-trainable params: 0
_________________________________________________________________
_________________________________________________________________
Layer (type)                 Output Shape              Param #   
=================================================================
cu_dnnlstm_49 (CuDNNLSTM)    (None, 1, 50)             13600     
_________________________________________________________________
dropout_37 (Dropout)         (None, 1, 50)             0         
_________________________________________________________________
cu_dnnlstm_50 (CuDNNLSTM)    (None, 100)               60800     
_________________________________________________________________
dropout_38 (Dropout)         (None, 100)               0         
_________________________________________________________________
dense_26 (Dense)             (None, 1)                 101       
_________________________________________________________________
activation_17 (Activation)   (None, 1)                 0         
=================================================================
Total params: 74,501
Trainable params: 74,501
Non-trainable params: 0
_________________________________________________________________
_________________________________________________________________
Layer (type)                 Output Shape              Param #   
=================================================================
cu_dnnlstm_51 (CuDNNLSTM)    (None, 1, 50)             13600     
_________________________________________________________________
dropout_39 (Dropout)         (None, 1, 50)             0         
_________________________________________________________________
cu_dnnlstm_52 (CuDNNLSTM)    (None, 100)               60800     
_________________________________________________________________
dropout_40 (Dropout)         (None, 100)               0         
_________________________________________________________________
dense_27 (Dense)             (None, 1)                 101       
_________________________________________________________________
activation_18 (Activation)   (None, 1)                 0         
=================================================================
Total params: 74,501
Trainable params: 74,501
Non-trainable params: 0
_________________________________________________________________
_________________________________________________________________
Layer (type)                 Output Shape              Param #   
=================================================================
cu_dnnlstm_53 (CuDNNLSTM)    (None, 1, 50)             13600     
_________________________________________________________________
dropout_41 (Dropout)         (None, 1, 50)             0         
_________________________________________________________________
cu_dnnlstm_54 (CuDNNLSTM)    (None, 1, 100)            60800     
_________________________________________________________________
dropout_42 (Dropout)         (None, 1, 100)            0         
_________________________________________________________________
cu_dnnlstm_55 (CuDNNLSTM)    (None, 100)               80800     
_________________________________________________________________
dense_28 (Dense)             (None, 1)                 101       
_________________________________________________________________
activation_19 (Activation)   (None, 1)                 0         
=================================================================
Total params: 155,301
Trainable params: 155,301
Non-trainable params: 0
_________________________________________________________________
_________________________________________________________________
Layer (type)                 Output Shape              Param #   
=================================================================
cu_dnnlstm_56 (CuDNNLSTM)    (None, 1, 150)            100800    
_________________________________________________________________
dropout_43 (Dropout)         (None, 1, 150)            0         
_________________________________________________________________
cu_dnnlstm_57 (CuDNNLSTM)    (None, 1, 250)            402000    
_________________________________________________________________
dropout_44 (Dropout)         (None, 1, 250)            0         
_________________________________________________________________
cu_dnnlstm_58 (CuDNNLSTM)    (None, 200)               361600    
_________________________________________________________________
dense_29 (Dense)             (None, 1)                 201       
_________________________________________________________________
activation_20 (Activation)   (None, 1)                 0         
=================================================================
Total params: 864,601
Trainable params: 864,601
Non-trainable params: 0
_________________________________________________________________
_________________________________________________________________
Layer (type)                 Output Shape              Param #   
=================================================================
cu_dnnlstm_59 (CuDNNLSTM)    (None, 1, 150)            100800    
_________________________________________________________________
dropout_45 (Dropout)         (None, 1, 150)            0         
_________________________________________________________________
cu_dnnlstm_60 (CuDNNLSTM)    (None, 1, 300)            542400    
_________________________________________________________________
dropout_46 (Dropout)         (None, 1, 300)            0         
_________________________________________________________________
cu_dnnlstm_61 (CuDNNLSTM)    (None, 200)               401600    
_________________________________________________________________
dense_30 (Dense)             (None, 1)                 201       
_________________________________________________________________
activation_21 (Activation)   (None, 1)                 0         
=================================================================
Total params: 1,045,001
Trainable params: 1,045,001
Non-trainable params: 0
_________________________________________________________________
_________________________________________________________________
Layer (type)                 Output Shape              Param #   
=================================================================
cu_dnnlstm_62 (CuDNNLSTM)    (None, 1, 150)            100800    
_________________________________________________________________
dropout_47 (Dropout)         (None, 1, 150)            0         
_________________________________________________________________
cu_dnnlstm_63 (CuDNNLSTM)    (None, 1, 300)            542400    
_________________________________________________________________
dropout_48 (Dropout)         (None, 1, 300)            0         
_________________________________________________________________
cu_dnnlstm_64 (CuDNNLSTM)    (None, 1, 200)            401600    
_________________________________________________________________
dropout_49 (Dropout)         (None, 1, 200)            0         
_________________________________________________________________
cu_dnnlstm_65 (CuDNNLSTM)    (None, 450)               1173600   
_________________________________________________________________
dense_31 (Dense)             (None, 1)                 451       
_________________________________________________________________
activation_22 (Activation)   (None, 1)                 0         
=================================================================
Total params: 2,218,851
Trainable params: 2,218,851
Non-trainable params: 0
_________________________________________________________________
_________________________________________________________________
Layer (type)                 Output Shape              Param #   
=================================================================
cu_dnnlstm_66 (CuDNNLSTM)    (None, 1, 150)            100800    
_________________________________________________________________
dropout_50 (Dropout)         (None, 1, 150)            0         
_________________________________________________________________
cu_dnnlstm_67 (CuDNNLSTM)    (None, 1, 300)            542400    
_________________________________________________________________
dropout_51 (Dropout)         (None, 1, 300)            0         
_________________________________________________________________
cu_dnnlstm_68 (CuDNNLSTM)    (None, 1, 200)            401600    
_________________________________________________________________
dropout_52 (Dropout)         (None, 1, 200)            0         
_________________________________________________________________
cu_dnnlstm_69 (CuDNNLSTM)    (None, 450)               1173600   
_________________________________________________________________
dense_32 (Dense)             (None, 1)                 451       
_________________________________________________________________
activation_23 (Activation)   (None, 1)                 0         
=================================================================
Total params: 2,218,851
Trainable params: 2,218,851
Non-trainable params: 0
_________________________________________________________________
_________________________________________________________________
Layer (type)                 Output Shape              Param #   
=================================================================
cu_dnnlstm_70 (CuDNNLSTM)    (None, 1, 250)            268000    
_________________________________________________________________
dropout_53 (Dropout)         (None, 1, 250)            0         
_________________________________________________________________
cu_dnnlstm_71 (CuDNNLSTM)    (None, 1, 200)            361600    
_________________________________________________________________
dropout_54 (Dropout)         (None, 1, 200)            0         
_________________________________________________________________
cu_dnnlstm_72 (CuDNNLSTM)    (None, 300)               602400    
_________________________________________________________________
dense_33 (Dense)             (None, 1)                 301       
_________________________________________________________________
activation_24 (Activation)   (None, 1)                 0         
=================================================================
Total params: 1,232,301
Trainable params: 1,232,301
Non-trainable params: 0
_________________________________________________________________
_________________________________________________________________
Layer (type)                 Output Shape              Param #   
=================================================================
dense_34 (Dense)             (None, 12)                204       
_________________________________________________________________
dense_35 (Dense)             (None, 8)                 104       
_________________________________________________________________
dense_36 (Dense)             (None, 1)                 9         
=================================================================
Total params: 317
Trainable params: 317
Non-trainable params: 0
_________________________________________________________________
_________________________________________________________________
Layer (type)                 Output Shape              Param #   
=================================================================
cu_dnnlstm_73 (CuDNNLSTM)    (None, 1, 50)             13600     
_________________________________________________________________
dropout_55 (Dropout)         (None, 1, 50)             0         
_________________________________________________________________
cu_dnnlstm_74 (CuDNNLSTM)    (None, 100)               60800     
_________________________________________________________________
dropout_56 (Dropout)         (None, 100)               0         
_________________________________________________________________
dense_37 (Dense)             (None, 1)                 101       
_________________________________________________________________
activation_25 (Activation)   (None, 1)                 0         
=================================================================
Total params: 74,501
Trainable params: 74,501
Non-trainable params: 0
_________________________________________________________________
_________________________________________________________________
Layer (type)                 Output Shape              Param #   
=================================================================
cu_dnnlstm_75 (CuDNNLSTM)    (None, 1, 50)             13600     
_________________________________________________________________
dropout_57 (Dropout)         (None, 1, 50)             0         
_________________________________________________________________
cu_dnnlstm_76 (CuDNNLSTM)    (None, 100)               60800     
_________________________________________________________________
dropout_58 (Dropout)         (None, 100)               0         
_________________________________________________________________
dense_38 (Dense)             (None, 1)                 101       
_________________________________________________________________
activation_26 (Activation)   (None, 1)                 0         
=================================================================
Total params: 74,501
Trainable params: 74,501
Non-trainable params: 0
_________________________________________________________________
_________________________________________________________________
Layer (type)                 Output Shape              Param #   
=================================================================
cu_dnnlstm_77 (CuDNNLSTM)    (None, 1, 50)             13600     
_________________________________________________________________
dropout_59 (Dropout)         (None, 1, 50)             0         
_________________________________________________________________
cu_dnnlstm_78 (CuDNNLSTM)    (None, 1, 100)            60800     
_________________________________________________________________
dropout_60 (Dropout)         (None, 1, 100)            0         
_________________________________________________________________
cu_dnnlstm_79 (CuDNNLSTM)    (None, 100)               80800     
_________________________________________________________________
dense_39 (Dense)             (None, 1)                 101       
_________________________________________________________________
activation_27 (Activation)   (None, 1)                 0         
=================================================================
Total params: 155,301
Trainable params: 155,301
Non-trainable params: 0
_________________________________________________________________
_________________________________________________________________
Layer (type)                 Output Shape              Param #   
=================================================================
cu_dnnlstm_80 (CuDNNLSTM)    (None, 1, 150)            100800    
_________________________________________________________________
dropout_61 (Dropout)         (None, 1, 150)            0         
_________________________________________________________________
cu_dnnlstm_81 (CuDNNLSTM)    (None, 1, 250)            402000    
_________________________________________________________________
dropout_62 (Dropout)         (None, 1, 250)            0         
_________________________________________________________________
cu_dnnlstm_82 (CuDNNLSTM)    (None, 200)               361600    
_________________________________________________________________
dense_40 (Dense)             (None, 1)                 201       
_________________________________________________________________
activation_28 (Activation)   (None, 1)                 0         
=================================================================
Total params: 864,601
Trainable params: 864,601
Non-trainable params: 0
_________________________________________________________________
_________________________________________________________________
Layer (type)                 Output Shape              Param #   
=================================================================
cu_dnnlstm_83 (CuDNNLSTM)    (None, 1, 150)            100800    
_________________________________________________________________
dropout_63 (Dropout)         (None, 1, 150)            0         
_________________________________________________________________
cu_dnnlstm_84 (CuDNNLSTM)    (None, 1, 300)            542400    
_________________________________________________________________
dropout_64 (Dropout)         (None, 1, 300)            0         
_________________________________________________________________
cu_dnnlstm_85 (CuDNNLSTM)    (None, 200)               401600    
_________________________________________________________________
dense_41 (Dense)             (None, 1)                 201       
_________________________________________________________________
activation_29 (Activation)   (None, 1)                 0         
=================================================================
Total params: 1,045,001
Trainable params: 1,045,001
Non-trainable params: 0
_________________________________________________________________
_________________________________________________________________
Layer (type)                 Output Shape              Param #   
=================================================================
cu_dnnlstm_86 (CuDNNLSTM)    (None, 1, 150)            100800    
_________________________________________________________________
dropout_65 (Dropout)         (None, 1, 150)            0         
_________________________________________________________________
cu_dnnlstm_87 (CuDNNLSTM)    (None, 1, 300)            542400    
_________________________________________________________________
dropout_66 (Dropout)         (None, 1, 300)            0         
_________________________________________________________________
cu_dnnlstm_88 (CuDNNLSTM)    (None, 1, 200)            401600    
_________________________________________________________________
dropout_67 (Dropout)         (None, 1, 200)            0         
_________________________________________________________________
cu_dnnlstm_89 (CuDNNLSTM)    (None, 450)               1173600   
_________________________________________________________________
dense_42 (Dense)             (None, 1)                 451       
_________________________________________________________________
activation_30 (Activation)   (None, 1)                 0         
=================================================================
Total params: 2,218,851
Trainable params: 2,218,851
Non-trainable params: 0
_________________________________________________________________
_________________________________________________________________
Layer (type)                 Output Shape              Param #   
=================================================================
cu_dnnlstm_90 (CuDNNLSTM)    (None, 1, 150)            100800    
_________________________________________________________________
dropout_68 (Dropout)         (None, 1, 150)            0         
_________________________________________________________________
cu_dnnlstm_91 (CuDNNLSTM)    (None, 1, 300)            542400    
_________________________________________________________________
dropout_69 (Dropout)         (None, 1, 300)            0         
_________________________________________________________________
cu_dnnlstm_92 (CuDNNLSTM)    (None, 1, 200)            401600    
_________________________________________________________________
dropout_70 (Dropout)         (None, 1, 200)            0         
_________________________________________________________________
cu_dnnlstm_93 (CuDNNLSTM)    (None, 450)               1173600   
_________________________________________________________________
dense_43 (Dense)             (None, 1)                 451       
_________________________________________________________________
activation_31 (Activation)   (None, 1)                 0         
=================================================================
Total params: 2,218,851
Trainable params: 2,218,851
Non-trainable params: 0
_________________________________________________________________
_________________________________________________________________
Layer (type)                 Output Shape              Param #   
=================================================================
cu_dnnlstm_94 (CuDNNLSTM)    (None, 1, 250)            268000    
_________________________________________________________________
dropout_71 (Dropout)         (None, 1, 250)            0         
_________________________________________________________________
cu_dnnlstm_95 (CuDNNLSTM)    (None, 1, 200)            361600    
_________________________________________________________________
dropout_72 (Dropout)         (None, 1, 200)            0         
_________________________________________________________________
cu_dnnlstm_96 (CuDNNLSTM)    (None, 300)               602400    
_________________________________________________________________
dense_44 (Dense)             (None, 1)                 301       
_________________________________________________________________
activation_32 (Activation)   (None, 1)                 0         
=================================================================
Total params: 1,232,301
Trainable params: 1,232,301
Non-trainable params: 0
_________________________________________________________________
_________________________________________________________________
Layer (type)                 Output Shape              Param #   
=================================================================
dense_45 (Dense)             (None, 12)                204       
_________________________________________________________________
dense_46 (Dense)             (None, 8)                 104       
_________________________________________________________________
dense_47 (Dense)             (None, 1)                 9         
=================================================================
Total params: 317
Trainable params: 317
Non-trainable params: 0
_________________________________________________________________
_________________________________________________________________
Layer (type)                 Output Shape              Param #   
=================================================================
cu_dnnlstm_97 (CuDNNLSTM)    (None, 1, 50)             13600     
_________________________________________________________________
dropout_73 (Dropout)         (None, 1, 50)             0         
_________________________________________________________________
cu_dnnlstm_98 (CuDNNLSTM)    (None, 100)               60800     
_________________________________________________________________
dropout_74 (Dropout)         (None, 100)               0         
_________________________________________________________________
dense_48 (Dense)             (None, 1)                 101       
_________________________________________________________________
activation_33 (Activation)   (None, 1)                 0         
=================================================================
Total params: 74,501
Trainable params: 74,501
Non-trainable params: 0
_________________________________________________________________
_________________________________________________________________
Layer (type)                 Output Shape              Param #   
=================================================================
cu_dnnlstm_99 (CuDNNLSTM)    (None, 1, 50)             13600     
_________________________________________________________________
dropout_75 (Dropout)         (None, 1, 50)             0         
_________________________________________________________________
cu_dnnlstm_100 (CuDNNLSTM)   (None, 100)               60800     
_________________________________________________________________
dropout_76 (Dropout)         (None, 100)               0         
_________________________________________________________________
dense_49 (Dense)             (None, 1)                 101       
_________________________________________________________________
activation_34 (Activation)   (None, 1)                 0         
=================================================================
Total params: 74,501
Trainable params: 74,501
Non-trainable params: 0
_________________________________________________________________
_________________________________________________________________
Layer (type)                 Output Shape              Param #   
=================================================================
cu_dnnlstm_101 (CuDNNLSTM)   (None, 1, 50)             13600     
_________________________________________________________________
dropout_77 (Dropout)         (None, 1, 50)             0         
_________________________________________________________________
cu_dnnlstm_102 (CuDNNLSTM)   (None, 1, 100)            60800     
_________________________________________________________________
dropout_78 (Dropout)         (None, 1, 100)            0         
_________________________________________________________________
cu_dnnlstm_103 (CuDNNLSTM)   (None, 100)               80800     
_________________________________________________________________
dense_50 (Dense)             (None, 1)                 101       
_________________________________________________________________
activation_35 (Activation)   (None, 1)                 0         
=================================================================
Total params: 155,301
Trainable params: 155,301
Non-trainable params: 0
_________________________________________________________________
_________________________________________________________________
Layer (type)                 Output Shape              Param #   
=================================================================
cu_dnnlstm_104 (CuDNNLSTM)   (None, 1, 150)            100800    
_________________________________________________________________
dropout_79 (Dropout)         (None, 1, 150)            0         
_________________________________________________________________
cu_dnnlstm_105 (CuDNNLSTM)   (None, 1, 250)            402000    
_________________________________________________________________
dropout_80 (Dropout)         (None, 1, 250)            0         
_________________________________________________________________
cu_dnnlstm_106 (CuDNNLSTM)   (None, 200)               361600    
_________________________________________________________________
dense_51 (Dense)             (None, 1)                 201       
_________________________________________________________________
activation_36 (Activation)   (None, 1)                 0         
=================================================================
Total params: 864,601
Trainable params: 864,601
Non-trainable params: 0
_________________________________________________________________
_________________________________________________________________
Layer (type)                 Output Shape              Param #   
=================================================================
cu_dnnlstm_107 (CuDNNLSTM)   (None, 1, 150)            100800    
_________________________________________________________________
dropout_81 (Dropout)         (None, 1, 150)            0         
_________________________________________________________________
cu_dnnlstm_108 (CuDNNLSTM)   (None, 1, 300)            542400    
_________________________________________________________________
dropout_82 (Dropout)         (None, 1, 300)            0         
_________________________________________________________________
cu_dnnlstm_109 (CuDNNLSTM)   (None, 200)               401600    
_________________________________________________________________
dense_52 (Dense)             (None, 1)                 201       
_________________________________________________________________
activation_37 (Activation)   (None, 1)                 0         
=================================================================
Total params: 1,045,001
Trainable params: 1,045,001
Non-trainable params: 0
_________________________________________________________________
_________________________________________________________________
Layer (type)                 Output Shape              Param #   
=================================================================
cu_dnnlstm_110 (CuDNNLSTM)   (None, 1, 150)            100800    
_________________________________________________________________
dropout_83 (Dropout)         (None, 1, 150)            0         
_________________________________________________________________
cu_dnnlstm_111 (CuDNNLSTM)   (None, 1, 300)            542400    
_________________________________________________________________
dropout_84 (Dropout)         (None, 1, 300)            0         
_________________________________________________________________
cu_dnnlstm_112 (CuDNNLSTM)   (None, 1, 200)            401600    
_________________________________________________________________
dropout_85 (Dropout)         (None, 1, 200)            0         
_________________________________________________________________
cu_dnnlstm_113 (CuDNNLSTM)   (None, 450)               1173600   
_________________________________________________________________
dense_53 (Dense)             (None, 1)                 451       
_________________________________________________________________
activation_38 (Activation)   (None, 1)                 0         
=================================================================
Total params: 2,218,851
Trainable params: 2,218,851
Non-trainable params: 0
_________________________________________________________________
_________________________________________________________________
Layer (type)                 Output Shape              Param #   
=================================================================
cu_dnnlstm_114 (CuDNNLSTM)   (None, 1, 150)            100800    
_________________________________________________________________
dropout_86 (Dropout)         (None, 1, 150)            0         
_________________________________________________________________
cu_dnnlstm_115 (CuDNNLSTM)   (None, 1, 300)            542400    
_________________________________________________________________
dropout_87 (Dropout)         (None, 1, 300)            0         
_________________________________________________________________
cu_dnnlstm_116 (CuDNNLSTM)   (None, 1, 200)            401600    
_________________________________________________________________
dropout_88 (Dropout)         (None, 1, 200)            0         
_________________________________________________________________
cu_dnnlstm_117 (CuDNNLSTM)   (None, 450)               1173600   
_________________________________________________________________
dense_54 (Dense)             (None, 1)                 451       
_________________________________________________________________
activation_39 (Activation)   (None, 1)                 0         
=================================================================
Total params: 2,218,851
Trainable params: 2,218,851
Non-trainable params: 0
_________________________________________________________________
_________________________________________________________________
Layer (type)                 Output Shape              Param #   
=================================================================
cu_dnnlstm_118 (CuDNNLSTM)   (None, 1, 250)            268000    
_________________________________________________________________
dropout_89 (Dropout)         (None, 1, 250)            0         
_________________________________________________________________
cu_dnnlstm_119 (CuDNNLSTM)   (None, 1, 200)            361600    
_________________________________________________________________
dropout_90 (Dropout)         (None, 1, 200)            0         
_________________________________________________________________
cu_dnnlstm_120 (CuDNNLSTM)   (None, 300)               602400    
_________________________________________________________________
dense_55 (Dense)             (None, 1)                 301       
_________________________________________________________________
activation_40 (Activation)   (None, 1)                 0         
=================================================================
Total params: 1,232,301
Trainable params: 1,232,301
Non-trainable params: 0
_________________________________________________________________
_________________________________________________________________
Layer (type)                 Output Shape              Param #   
=================================================================
dense_56 (Dense)             (None, 12)                204       
_________________________________________________________________
dense_57 (Dense)             (None, 8)                 104       
_________________________________________________________________
dense_58 (Dense)             (None, 1)                 9         
=================================================================
Total params: 317
Trainable params: 317
Non-trainable params: 0
_________________________________________________________________
_________________________________________________________________
Layer (type)                 Output Shape              Param #   
=================================================================
cu_dnnlstm_121 (CuDNNLSTM)   (None, 1, 50)             13600     
_________________________________________________________________
dropout_91 (Dropout)         (None, 1, 50)             0         
_________________________________________________________________
cu_dnnlstm_122 (CuDNNLSTM)   (None, 100)               60800     
_________________________________________________________________
dropout_92 (Dropout)         (None, 100)               0         
_________________________________________________________________
dense_59 (Dense)             (None, 1)                 101       
_________________________________________________________________
activation_41 (Activation)   (None, 1)                 0         
=================================================================
Total params: 74,501
Trainable params: 74,501
Non-trainable params: 0
_________________________________________________________________
_________________________________________________________________
Layer (type)                 Output Shape              Param #   
=================================================================
cu_dnnlstm_123 (CuDNNLSTM)   (None, 1, 50)             13600     
_________________________________________________________________
dropout_93 (Dropout)         (None, 1, 50)             0         
_________________________________________________________________
cu_dnnlstm_124 (CuDNNLSTM)   (None, 100)               60800     
_________________________________________________________________
dropout_94 (Dropout)         (None, 100)               0         
_________________________________________________________________
dense_60 (Dense)             (None, 1)                 101       
_________________________________________________________________
activation_42 (Activation)   (None, 1)                 0         
=================================================================
Total params: 74,501
Trainable params: 74,501
Non-trainable params: 0
_________________________________________________________________
_________________________________________________________________
Layer (type)                 Output Shape              Param #   
=================================================================
cu_dnnlstm_125 (CuDNNLSTM)   (None, 1, 50)             13600     
_________________________________________________________________
dropout_95 (Dropout)         (None, 1, 50)             0         
_________________________________________________________________
cu_dnnlstm_126 (CuDNNLSTM)   (None, 1, 100)            60800     
_________________________________________________________________
dropout_96 (Dropout)         (None, 1, 100)            0         
_________________________________________________________________
cu_dnnlstm_127 (CuDNNLSTM)   (None, 100)               80800     
_________________________________________________________________
dense_61 (Dense)             (None, 1)                 101       
_________________________________________________________________
activation_43 (Activation)   (None, 1)                 0         
=================================================================
Total params: 155,301
Trainable params: 155,301
Non-trainable params: 0
_________________________________________________________________
_________________________________________________________________
Layer (type)                 Output Shape              Param #   
=================================================================
cu_dnnlstm_128 (CuDNNLSTM)   (None, 1, 150)            100800    
_________________________________________________________________
dropout_97 (Dropout)         (None, 1, 150)            0         
_________________________________________________________________
cu_dnnlstm_129 (CuDNNLSTM)   (None, 1, 250)            402000    
_________________________________________________________________
dropout_98 (Dropout)         (None, 1, 250)            0         
_________________________________________________________________
cu_dnnlstm_130 (CuDNNLSTM)   (None, 200)               361600    
_________________________________________________________________
dense_62 (Dense)             (None, 1)                 201       
_________________________________________________________________
activation_44 (Activation)   (None, 1)                 0         
=================================================================
Total params: 864,601
Trainable params: 864,601
Non-trainable params: 0
_________________________________________________________________
_________________________________________________________________
Layer (type)                 Output Shape              Param #   
=================================================================
cu_dnnlstm_131 (CuDNNLSTM)   (None, 1, 150)            100800    
_________________________________________________________________
dropout_99 (Dropout)         (None, 1, 150)            0         
_________________________________________________________________
cu_dnnlstm_132 (CuDNNLSTM)   (None, 1, 300)            542400    
_________________________________________________________________
dropout_100 (Dropout)        (None, 1, 300)            0         
_________________________________________________________________
cu_dnnlstm_133 (CuDNNLSTM)   (None, 200)               401600    
_________________________________________________________________
dense_63 (Dense)             (None, 1)                 201       
_________________________________________________________________
activation_45 (Activation)   (None, 1)                 0         
=================================================================
Total params: 1,045,001
Trainable params: 1,045,001
Non-trainable params: 0
_________________________________________________________________
_________________________________________________________________
Layer (type)                 Output Shape              Param #   
=================================================================
cu_dnnlstm_134 (CuDNNLSTM)   (None, 1, 150)            100800    
_________________________________________________________________
dropout_101 (Dropout)        (None, 1, 150)            0         
_________________________________________________________________
cu_dnnlstm_135 (CuDNNLSTM)   (None, 1, 300)            542400    
_________________________________________________________________
dropout_102 (Dropout)        (None, 1, 300)            0         
_________________________________________________________________
cu_dnnlstm_136 (CuDNNLSTM)   (None, 1, 200)            401600    
_________________________________________________________________
dropout_103 (Dropout)        (None, 1, 200)            0         
_________________________________________________________________
cu_dnnlstm_137 (CuDNNLSTM)   (None, 450)               1173600   
_________________________________________________________________
dense_64 (Dense)             (None, 1)                 451       
_________________________________________________________________
activation_46 (Activation)   (None, 1)                 0         
=================================================================
Total params: 2,218,851
Trainable params: 2,218,851
Non-trainable params: 0
_________________________________________________________________
_________________________________________________________________
Layer (type)                 Output Shape              Param #   
=================================================================
cu_dnnlstm_138 (CuDNNLSTM)   (None, 1, 150)            100800    
_________________________________________________________________
dropout_104 (Dropout)        (None, 1, 150)            0         
_________________________________________________________________
cu_dnnlstm_139 (CuDNNLSTM)   (None, 1, 300)            542400    
_________________________________________________________________
dropout_105 (Dropout)        (None, 1, 300)            0         
_________________________________________________________________
cu_dnnlstm_140 (CuDNNLSTM)   (None, 1, 200)            401600    
_________________________________________________________________
dropout_106 (Dropout)        (None, 1, 200)            0         
_________________________________________________________________
cu_dnnlstm_141 (CuDNNLSTM)   (None, 450)               1173600   
_________________________________________________________________
dense_65 (Dense)             (None, 1)                 451       
_________________________________________________________________
activation_47 (Activation)   (None, 1)                 0         
=================================================================
Total params: 2,218,851
Trainable params: 2,218,851
Non-trainable params: 0
_________________________________________________________________
_________________________________________________________________
Layer (type)                 Output Shape              Param #   
=================================================================
cu_dnnlstm_142 (CuDNNLSTM)   (None, 1, 250)            268000    
_________________________________________________________________
dropout_107 (Dropout)        (None, 1, 250)            0         
_________________________________________________________________
cu_dnnlstm_143 (CuDNNLSTM)   (None, 1, 200)            361600    
_________________________________________________________________
dropout_108 (Dropout)        (None, 1, 200)            0         
_________________________________________________________________
cu_dnnlstm_144 (CuDNNLSTM)   (None, 300)               602400    
_________________________________________________________________
dense_66 (Dense)             (None, 1)                 301       
_________________________________________________________________
activation_48 (Activation)   (None, 1)                 0         
=================================================================
Total params: 1,232,301
Trainable params: 1,232,301
Non-trainable params: 0
_________________________________________________________________
_________________________________________________________________
Layer (type)                 Output Shape              Param #   
=================================================================
dense_67 (Dense)             (None, 12)                204       
_________________________________________________________________
dense_68 (Dense)             (None, 8)                 104       
_________________________________________________________________
dense_69 (Dense)             (None, 1)                 9         
=================================================================
Total params: 317
Trainable params: 317
Non-trainable params: 0
_________________________________________________________________
_________________________________________________________________
Layer (type)                 Output Shape              Param #   
=================================================================
cu_dnnlstm_145 (CuDNNLSTM)   (None, 1, 50)             13600     
_________________________________________________________________
dropout_109 (Dropout)        (None, 1, 50)             0         
_________________________________________________________________
cu_dnnlstm_146 (CuDNNLSTM)   (None, 100)               60800     
_________________________________________________________________
dropout_110 (Dropout)        (None, 100)               0         
_________________________________________________________________
dense_70 (Dense)             (None, 1)                 101       
_________________________________________________________________
activation_49 (Activation)   (None, 1)                 0         
=================================================================
Total params: 74,501
Trainable params: 74,501
Non-trainable params: 0
_________________________________________________________________
_________________________________________________________________
Layer (type)                 Output Shape              Param #   
=================================================================
cu_dnnlstm_147 (CuDNNLSTM)   (None, 1, 50)             13600     
_________________________________________________________________
dropout_111 (Dropout)        (None, 1, 50)             0         
_________________________________________________________________
cu_dnnlstm_148 (CuDNNLSTM)   (None, 100)               60800     
_________________________________________________________________
dropout_112 (Dropout)        (None, 100)               0         
_________________________________________________________________
dense_71 (Dense)             (None, 1)                 101       
_________________________________________________________________
activation_50 (Activation)   (None, 1)                 0         
=================================================================
Total params: 74,501
Trainable params: 74,501
Non-trainable params: 0
_________________________________________________________________
_________________________________________________________________
Layer (type)                 Output Shape              Param #   
=================================================================
cu_dnnlstm_149 (CuDNNLSTM)   (None, 1, 50)             13600     
_________________________________________________________________
dropout_113 (Dropout)        (None, 1, 50)             0         
_________________________________________________________________
cu_dnnlstm_150 (CuDNNLSTM)   (None, 1, 100)            60800     
_________________________________________________________________
dropout_114 (Dropout)        (None, 1, 100)            0         
_________________________________________________________________
cu_dnnlstm_151 (CuDNNLSTM)   (None, 100)               80800     
_________________________________________________________________
dense_72 (Dense)             (None, 1)                 101       
_________________________________________________________________
activation_51 (Activation)   (None, 1)                 0         
=================================================================
Total params: 155,301
Trainable params: 155,301
Non-trainable params: 0
_________________________________________________________________
_________________________________________________________________
Layer (type)                 Output Shape              Param #   
=================================================================
cu_dnnlstm_152 (CuDNNLSTM)   (None, 1, 150)            100800    
_________________________________________________________________
dropout_115 (Dropout)        (None, 1, 150)            0         
_________________________________________________________________
cu_dnnlstm_153 (CuDNNLSTM)   (None, 1, 250)            402000    
_________________________________________________________________
dropout_116 (Dropout)        (None, 1, 250)            0         
_________________________________________________________________
cu_dnnlstm_154 (CuDNNLSTM)   (None, 200)               361600    
_________________________________________________________________
dense_73 (Dense)             (None, 1)                 201       
_________________________________________________________________
activation_52 (Activation)   (None, 1)                 0         
=================================================================
Total params: 864,601
Trainable params: 864,601
Non-trainable params: 0
_________________________________________________________________
_________________________________________________________________
Layer (type)                 Output Shape              Param #   
=================================================================
cu_dnnlstm_155 (CuDNNLSTM)   (None, 1, 150)            100800    
_________________________________________________________________
dropout_117 (Dropout)        (None, 1, 150)            0         
_________________________________________________________________
cu_dnnlstm_156 (CuDNNLSTM)   (None, 1, 300)            542400    
_________________________________________________________________
dropout_118 (Dropout)        (None, 1, 300)            0         
_________________________________________________________________
cu_dnnlstm_157 (CuDNNLSTM)   (None, 200)               401600    
_________________________________________________________________
dense_74 (Dense)             (None, 1)                 201       
_________________________________________________________________
activation_53 (Activation)   (None, 1)                 0         
=================================================================
Total params: 1,045,001
Trainable params: 1,045,001
Non-trainable params: 0
_________________________________________________________________
_________________________________________________________________
Layer (type)                 Output Shape              Param #   
=================================================================
cu_dnnlstm_158 (CuDNNLSTM)   (None, 1, 150)            100800    
_________________________________________________________________
dropout_119 (Dropout)        (None, 1, 150)            0         
_________________________________________________________________
cu_dnnlstm_159 (CuDNNLSTM)   (None, 1, 300)            542400    
_________________________________________________________________
dropout_120 (Dropout)        (None, 1, 300)            0         
_________________________________________________________________
cu_dnnlstm_160 (CuDNNLSTM)   (None, 1, 200)            401600    
_________________________________________________________________
dropout_121 (Dropout)        (None, 1, 200)            0         
_________________________________________________________________
cu_dnnlstm_161 (CuDNNLSTM)   (None, 450)               1173600   
_________________________________________________________________
dense_75 (Dense)             (None, 1)                 451       
_________________________________________________________________
activation_54 (Activation)   (None, 1)                 0         
=================================================================
Total params: 2,218,851
Trainable params: 2,218,851
Non-trainable params: 0
_________________________________________________________________
_________________________________________________________________
Layer (type)                 Output Shape              Param #   
=================================================================
cu_dnnlstm_162 (CuDNNLSTM)   (None, 1, 150)            100800    
_________________________________________________________________
dropout_122 (Dropout)        (None, 1, 150)            0         
_________________________________________________________________
cu_dnnlstm_163 (CuDNNLSTM)   (None, 1, 300)            542400    
_________________________________________________________________
dropout_123 (Dropout)        (None, 1, 300)            0         
_________________________________________________________________
cu_dnnlstm_164 (CuDNNLSTM)   (None, 1, 200)            401600    
_________________________________________________________________
dropout_124 (Dropout)        (None, 1, 200)            0         
_________________________________________________________________
cu_dnnlstm_165 (CuDNNLSTM)   (None, 450)               1173600   
_________________________________________________________________
dense_76 (Dense)             (None, 1)                 451       
_________________________________________________________________
activation_55 (Activation)   (None, 1)                 0         
=================================================================
Total params: 2,218,851
Trainable params: 2,218,851
Non-trainable params: 0
_________________________________________________________________
_________________________________________________________________
Layer (type)                 Output Shape              Param #   
=================================================================
cu_dnnlstm_166 (CuDNNLSTM)   (None, 1, 250)            268000    
_________________________________________________________________
dropout_125 (Dropout)        (None, 1, 250)            0         
_________________________________________________________________
cu_dnnlstm_167 (CuDNNLSTM)   (None, 1, 200)            361600    
_________________________________________________________________
dropout_126 (Dropout)        (None, 1, 200)            0         
_________________________________________________________________
cu_dnnlstm_168 (CuDNNLSTM)   (None, 300)               602400    
_________________________________________________________________
dense_77 (Dense)             (None, 1)                 301       
_________________________________________________________________
activation_56 (Activation)   (None, 1)                 0         
=================================================================
Total params: 1,232,301
Trainable params: 1,232,301
Non-trainable params: 0
_________________________________________________________________
_________________________________________________________________
Layer (type)                 Output Shape              Param #   
=================================================================
dense_78 (Dense)             (None, 12)                204       
_________________________________________________________________
dense_79 (Dense)             (None, 8)                 104       
_________________________________________________________________
dense_80 (Dense)             (None, 1)                 9         
=================================================================
Total params: 317
Trainable params: 317
Non-trainable params: 0
_________________________________________________________________
_________________________________________________________________
Layer (type)                 Output Shape              Param #   
=================================================================
cu_dnnlstm_169 (CuDNNLSTM)   (None, 1, 50)             13600     
_________________________________________________________________
dropout_127 (Dropout)        (None, 1, 50)             0         
_________________________________________________________________
cu_dnnlstm_170 (CuDNNLSTM)   (None, 100)               60800     
_________________________________________________________________
dropout_128 (Dropout)        (None, 100)               0         
_________________________________________________________________
dense_81 (Dense)             (None, 1)                 101       
_________________________________________________________________
activation_57 (Activation)   (None, 1)                 0         
=================================================================
Total params: 74,501
Trainable params: 74,501
Non-trainable params: 0
_________________________________________________________________
_________________________________________________________________
Layer (type)                 Output Shape              Param #   
=================================================================
cu_dnnlstm_171 (CuDNNLSTM)   (None, 1, 50)             13600     
_________________________________________________________________
dropout_129 (Dropout)        (None, 1, 50)             0         
_________________________________________________________________
cu_dnnlstm_172 (CuDNNLSTM)   (None, 100)               60800     
_________________________________________________________________
dropout_130 (Dropout)        (None, 100)               0         
_________________________________________________________________
dense_82 (Dense)             (None, 1)                 101       
_________________________________________________________________
activation_58 (Activation)   (None, 1)                 0         
=================================================================
Total params: 74,501
Trainable params: 74,501
Non-trainable params: 0
_________________________________________________________________
_________________________________________________________________
Layer (type)                 Output Shape              Param #   
=================================================================
cu_dnnlstm_173 (CuDNNLSTM)   (None, 1, 50)             13600     
_________________________________________________________________
dropout_131 (Dropout)        (None, 1, 50)             0         
_________________________________________________________________
cu_dnnlstm_174 (CuDNNLSTM)   (None, 1, 100)            60800     
_________________________________________________________________
dropout_132 (Dropout)        (None, 1, 100)            0         
_________________________________________________________________
cu_dnnlstm_175 (CuDNNLSTM)   (None, 100)               80800     
_________________________________________________________________
dense_83 (Dense)             (None, 1)                 101       
_________________________________________________________________
activation_59 (Activation)   (None, 1)                 0         
=================================================================
Total params: 155,301
Trainable params: 155,301
Non-trainable params: 0
_________________________________________________________________
_________________________________________________________________
Layer (type)                 Output Shape              Param #   
=================================================================
cu_dnnlstm_176 (CuDNNLSTM)   (None, 1, 150)            100800    
_________________________________________________________________
dropout_133 (Dropout)        (None, 1, 150)            0         
_________________________________________________________________
cu_dnnlstm_177 (CuDNNLSTM)   (None, 1, 250)            402000    
_________________________________________________________________
dropout_134 (Dropout)        (None, 1, 250)            0         
_________________________________________________________________
cu_dnnlstm_178 (CuDNNLSTM)   (None, 200)               361600    
_________________________________________________________________
dense_84 (Dense)             (None, 1)                 201       
_________________________________________________________________
activation_60 (Activation)   (None, 1)                 0         
=================================================================
Total params: 864,601
Trainable params: 864,601
Non-trainable params: 0
_________________________________________________________________
_________________________________________________________________
Layer (type)                 Output Shape              Param #   
=================================================================
cu_dnnlstm_179 (CuDNNLSTM)   (None, 1, 150)            100800    
_________________________________________________________________
dropout_135 (Dropout)        (None, 1, 150)            0         
_________________________________________________________________
cu_dnnlstm_180 (CuDNNLSTM)   (None, 1, 300)            542400    
_________________________________________________________________
dropout_136 (Dropout)        (None, 1, 300)            0         
_________________________________________________________________
cu_dnnlstm_181 (CuDNNLSTM)   (None, 200)               401600    
_________________________________________________________________
dense_85 (Dense)             (None, 1)                 201       
_________________________________________________________________
activation_61 (Activation)   (None, 1)                 0         
=================================================================
Total params: 1,045,001
Trainable params: 1,045,001
Non-trainable params: 0
_________________________________________________________________
_________________________________________________________________
Layer (type)                 Output Shape              Param #   
=================================================================
cu_dnnlstm_182 (CuDNNLSTM)   (None, 1, 150)            100800    
_________________________________________________________________
dropout_137 (Dropout)        (None, 1, 150)            0         
_________________________________________________________________
cu_dnnlstm_183 (CuDNNLSTM)   (None, 1, 300)            542400    
_________________________________________________________________
dropout_138 (Dropout)        (None, 1, 300)            0         
_________________________________________________________________
cu_dnnlstm_184 (CuDNNLSTM)   (None, 1, 200)            401600    
_________________________________________________________________
dropout_139 (Dropout)        (None, 1, 200)            0         
_________________________________________________________________
cu_dnnlstm_185 (CuDNNLSTM)   (None, 450)               1173600   
_________________________________________________________________
dense_86 (Dense)             (None, 1)                 451       
_________________________________________________________________
activation_62 (Activation)   (None, 1)                 0         
=================================================================
Total params: 2,218,851
Trainable params: 2,218,851
Non-trainable params: 0
_________________________________________________________________
_________________________________________________________________
Layer (type)                 Output Shape              Param #   
=================================================================
cu_dnnlstm_186 (CuDNNLSTM)   (None, 1, 150)            100800    
_________________________________________________________________
dropout_140 (Dropout)        (None, 1, 150)            0         
_________________________________________________________________
cu_dnnlstm_187 (CuDNNLSTM)   (None, 1, 300)            542400    
_________________________________________________________________
dropout_141 (Dropout)        (None, 1, 300)            0         
_________________________________________________________________
cu_dnnlstm_188 (CuDNNLSTM)   (None, 1, 200)            401600    
_________________________________________________________________
dropout_142 (Dropout)        (None, 1, 200)            0         
_________________________________________________________________
cu_dnnlstm_189 (CuDNNLSTM)   (None, 450)               1173600   
_________________________________________________________________
dense_87 (Dense)             (None, 1)                 451       
_________________________________________________________________
activation_63 (Activation)   (None, 1)                 0         
=================================================================
Total params: 2,218,851
Trainable params: 2,218,851
Non-trainable params: 0
_________________________________________________________________
_________________________________________________________________
Layer (type)                 Output Shape              Param #   
=================================================================
cu_dnnlstm_190 (CuDNNLSTM)   (None, 1, 250)            268000    
_________________________________________________________________
dropout_143 (Dropout)        (None, 1, 250)            0         
_________________________________________________________________
cu_dnnlstm_191 (CuDNNLSTM)   (None, 1, 200)            361600    
_________________________________________________________________
dropout_144 (Dropout)        (None, 1, 200)            0         
_________________________________________________________________
cu_dnnlstm_192 (CuDNNLSTM)   (None, 300)               602400    
_________________________________________________________________
dense_88 (Dense)             (None, 1)                 301       
_________________________________________________________________
activation_64 (Activation)   (None, 1)                 0         
=================================================================
Total params: 1,232,301
Trainable params: 1,232,301
Non-trainable params: 0
_________________________________________________________________
_________________________________________________________________
Layer (type)                 Output Shape              Param #   
=================================================================
dense_89 (Dense)             (None, 12)                204       
_________________________________________________________________
dense_90 (Dense)             (None, 8)                 104       
_________________________________________________________________
dense_91 (Dense)             (None, 1)                 9         
=================================================================
Total params: 317
Trainable params: 317
Non-trainable params: 0
_________________________________________________________________
_________________________________________________________________
Layer (type)                 Output Shape              Param #   
=================================================================
cu_dnnlstm_193 (CuDNNLSTM)   (None, 1, 50)             13600     
_________________________________________________________________
dropout_145 (Dropout)        (None, 1, 50)             0         
_________________________________________________________________
cu_dnnlstm_194 (CuDNNLSTM)   (None, 100)               60800     
_________________________________________________________________
dropout_146 (Dropout)        (None, 100)               0         
_________________________________________________________________
dense_92 (Dense)             (None, 1)                 101       
_________________________________________________________________
activation_65 (Activation)   (None, 1)                 0         
=================================================================
Total params: 74,501
Trainable params: 74,501
Non-trainable params: 0
_________________________________________________________________
_________________________________________________________________
Layer (type)                 Output Shape              Param #   
=================================================================
cu_dnnlstm_195 (CuDNNLSTM)   (None, 1, 50)             13600     
_________________________________________________________________
dropout_147 (Dropout)        (None, 1, 50)             0         
_________________________________________________________________
cu_dnnlstm_196 (CuDNNLSTM)   (None, 100)               60800     
_________________________________________________________________
dropout_148 (Dropout)        (None, 100)               0         
_________________________________________________________________
dense_93 (Dense)             (None, 1)                 101       
_________________________________________________________________
activation_66 (Activation)   (None, 1)                 0         
=================================================================
Total params: 74,501
Trainable params: 74,501
Non-trainable params: 0
_________________________________________________________________
_________________________________________________________________
Layer (type)                 Output Shape              Param #   
=================================================================
cu_dnnlstm_197 (CuDNNLSTM)   (None, 1, 50)             13600     
_________________________________________________________________
dropout_149 (Dropout)        (None, 1, 50)             0         
_________________________________________________________________
cu_dnnlstm_198 (CuDNNLSTM)   (None, 1, 100)            60800     
_________________________________________________________________
dropout_150 (Dropout)        (None, 1, 100)            0         
_________________________________________________________________
cu_dnnlstm_199 (CuDNNLSTM)   (None, 100)               80800     
_________________________________________________________________
dense_94 (Dense)             (None, 1)                 101       
_________________________________________________________________
activation_67 (Activation)   (None, 1)                 0         
=================================================================
Total params: 155,301
Trainable params: 155,301
Non-trainable params: 0
_________________________________________________________________
_________________________________________________________________
Layer (type)                 Output Shape              Param #   
=================================================================
cu_dnnlstm_200 (CuDNNLSTM)   (None, 1, 150)            100800    
_________________________________________________________________
dropout_151 (Dropout)        (None, 1, 150)            0         
_________________________________________________________________
cu_dnnlstm_201 (CuDNNLSTM)   (None, 1, 250)            402000    
_________________________________________________________________
dropout_152 (Dropout)        (None, 1, 250)            0         
_________________________________________________________________
cu_dnnlstm_202 (CuDNNLSTM)   (None, 200)               361600    
_________________________________________________________________
dense_95 (Dense)             (None, 1)                 201       
_________________________________________________________________
activation_68 (Activation)   (None, 1)                 0         
=================================================================
Total params: 864,601
Trainable params: 864,601
Non-trainable params: 0
_________________________________________________________________
_________________________________________________________________
Layer (type)                 Output Shape              Param #   
=================================================================
cu_dnnlstm_203 (CuDNNLSTM)   (None, 1, 150)            100800    
_________________________________________________________________
dropout_153 (Dropout)        (None, 1, 150)            0         
_________________________________________________________________
cu_dnnlstm_204 (CuDNNLSTM)   (None, 1, 300)            542400    
_________________________________________________________________
dropout_154 (Dropout)        (None, 1, 300)            0         
_________________________________________________________________
cu_dnnlstm_205 (CuDNNLSTM)   (None, 200)               401600    
_________________________________________________________________
dense_96 (Dense)             (None, 1)                 201       
_________________________________________________________________
activation_69 (Activation)   (None, 1)                 0         
=================================================================
Total params: 1,045,001
Trainable params: 1,045,001
Non-trainable params: 0
_________________________________________________________________
_________________________________________________________________
Layer (type)                 Output Shape              Param #   
=================================================================
cu_dnnlstm_206 (CuDNNLSTM)   (None, 1, 150)            100800    
_________________________________________________________________
dropout_155 (Dropout)        (None, 1, 150)            0         
_________________________________________________________________
cu_dnnlstm_207 (CuDNNLSTM)   (None, 1, 300)            542400    
_________________________________________________________________
dropout_156 (Dropout)        (None, 1, 300)            0         
_________________________________________________________________
cu_dnnlstm_208 (CuDNNLSTM)   (None, 1, 200)            401600    
_________________________________________________________________
dropout_157 (Dropout)        (None, 1, 200)            0         
_________________________________________________________________
cu_dnnlstm_209 (CuDNNLSTM)   (None, 450)               1173600   
_________________________________________________________________
dense_97 (Dense)             (None, 1)                 451       
_________________________________________________________________
activation_70 (Activation)   (None, 1)                 0         
=================================================================
Total params: 2,218,851
Trainable params: 2,218,851
Non-trainable params: 0
_________________________________________________________________
_________________________________________________________________
Layer (type)                 Output Shape              Param #   
=================================================================
cu_dnnlstm_210 (CuDNNLSTM)   (None, 1, 150)            100800    
_________________________________________________________________
dropout_158 (Dropout)        (None, 1, 150)            0         
_________________________________________________________________
cu_dnnlstm_211 (CuDNNLSTM)   (None, 1, 300)            542400    
_________________________________________________________________
dropout_159 (Dropout)        (None, 1, 300)            0         
_________________________________________________________________
cu_dnnlstm_212 (CuDNNLSTM)   (None, 1, 200)            401600    
_________________________________________________________________
dropout_160 (Dropout)        (None, 1, 200)            0         
_________________________________________________________________
cu_dnnlstm_213 (CuDNNLSTM)   (None, 450)               1173600   
_________________________________________________________________
dense_98 (Dense)             (None, 1)                 451       
_________________________________________________________________
activation_71 (Activation)   (None, 1)                 0         
=================================================================
Total params: 2,218,851
Trainable params: 2,218,851
Non-trainable params: 0
_________________________________________________________________
_________________________________________________________________
Layer (type)                 Output Shape              Param #   
=================================================================
cu_dnnlstm_214 (CuDNNLSTM)   (None, 1, 250)            268000    
_________________________________________________________________
dropout_161 (Dropout)        (None, 1, 250)            0         
_________________________________________________________________
cu_dnnlstm_215 (CuDNNLSTM)   (None, 1, 200)            361600    
_________________________________________________________________
dropout_162 (Dropout)        (None, 1, 200)            0         
_________________________________________________________________
cu_dnnlstm_216 (CuDNNLSTM)   (None, 300)               602400    
_________________________________________________________________
dense_99 (Dense)             (None, 1)                 301       
_________________________________________________________________
activation_72 (Activation)   (None, 1)                 0         
=================================================================
Total params: 1,232,301
Trainable params: 1,232,301
Non-trainable params: 0
_________________________________________________________________
_________________________________________________________________
Layer (type)                 Output Shape              Param #   
=================================================================
dense_100 (Dense)            (None, 12)                204       
_________________________________________________________________
dense_101 (Dense)            (None, 8)                 104       
_________________________________________________________________
dense_102 (Dense)            (None, 1)                 9         
=================================================================
Total params: 317
Trainable params: 317
Non-trainable params: 0
_________________________________________________________________
_________________________________________________________________
Layer (type)                 Output Shape              Param #   
=================================================================
cu_dnnlstm_217 (CuDNNLSTM)   (None, 1, 50)             13600     
_________________________________________________________________
dropout_163 (Dropout)        (None, 1, 50)             0         
_________________________________________________________________
cu_dnnlstm_218 (CuDNNLSTM)   (None, 100)               60800     
_________________________________________________________________
dropout_164 (Dropout)        (None, 100)               0         
_________________________________________________________________
dense_103 (Dense)            (None, 1)                 101       
_________________________________________________________________
activation_73 (Activation)   (None, 1)                 0         
=================================================================
Total params: 74,501
Trainable params: 74,501
Non-trainable params: 0
_________________________________________________________________
_________________________________________________________________
Layer (type)                 Output Shape              Param #   
=================================================================
cu_dnnlstm_219 (CuDNNLSTM)   (None, 1, 50)             13600     
_________________________________________________________________
dropout_165 (Dropout)        (None, 1, 50)             0         
_________________________________________________________________
cu_dnnlstm_220 (CuDNNLSTM)   (None, 100)               60800     
_________________________________________________________________
dropout_166 (Dropout)        (None, 100)               0         
_________________________________________________________________
dense_104 (Dense)            (None, 1)                 101       
_________________________________________________________________
activation_74 (Activation)   (None, 1)                 0         
=================================================================
Total params: 74,501
Trainable params: 74,501
Non-trainable params: 0
_________________________________________________________________
_________________________________________________________________
Layer (type)                 Output Shape              Param #   
=================================================================
cu_dnnlstm_221 (CuDNNLSTM)   (None, 1, 50)             13600     
_________________________________________________________________
dropout_167 (Dropout)        (None, 1, 50)             0         
_________________________________________________________________
cu_dnnlstm_222 (CuDNNLSTM)   (None, 1, 100)            60800     
_________________________________________________________________
dropout_168 (Dropout)        (None, 1, 100)            0         
_________________________________________________________________
cu_dnnlstm_223 (CuDNNLSTM)   (None, 100)               80800     
_________________________________________________________________
dense_105 (Dense)            (None, 1)                 101       
_________________________________________________________________
activation_75 (Activation)   (None, 1)                 0         
=================================================================
Total params: 155,301
Trainable params: 155,301
Non-trainable params: 0
_________________________________________________________________
_________________________________________________________________
Layer (type)                 Output Shape              Param #   
=================================================================
cu_dnnlstm_224 (CuDNNLSTM)   (None, 1, 150)            100800    
_________________________________________________________________
dropout_169 (Dropout)        (None, 1, 150)            0         
_________________________________________________________________
cu_dnnlstm_225 (CuDNNLSTM)   (None, 1, 250)            402000    
_________________________________________________________________
dropout_170 (Dropout)        (None, 1, 250)            0         
_________________________________________________________________
cu_dnnlstm_226 (CuDNNLSTM)   (None, 200)               361600    
_________________________________________________________________
dense_106 (Dense)            (None, 1)                 201       
_________________________________________________________________
activation_76 (Activation)   (None, 1)                 0         
=================================================================
Total params: 864,601
Trainable params: 864,601
Non-trainable params: 0
_________________________________________________________________
_________________________________________________________________
Layer (type)                 Output Shape              Param #   
=================================================================
cu_dnnlstm_227 (CuDNNLSTM)   (None, 1, 150)            100800    
_________________________________________________________________
dropout_171 (Dropout)        (None, 1, 150)            0         
_________________________________________________________________
cu_dnnlstm_228 (CuDNNLSTM)   (None, 1, 300)            542400    
_________________________________________________________________
dropout_172 (Dropout)        (None, 1, 300)            0         
_________________________________________________________________
cu_dnnlstm_229 (CuDNNLSTM)   (None, 200)               401600    
_________________________________________________________________
dense_107 (Dense)            (None, 1)                 201       
_________________________________________________________________
activation_77 (Activation)   (None, 1)                 0         
=================================================================
Total params: 1,045,001
Trainable params: 1,045,001
Non-trainable params: 0
_________________________________________________________________
_________________________________________________________________
Layer (type)                 Output Shape              Param #   
=================================================================
cu_dnnlstm_230 (CuDNNLSTM)   (None, 1, 150)            100800    
_________________________________________________________________
dropout_173 (Dropout)        (None, 1, 150)            0         
_________________________________________________________________
cu_dnnlstm_231 (CuDNNLSTM)   (None, 1, 300)            542400    
_________________________________________________________________
dropout_174 (Dropout)        (None, 1, 300)            0         
_________________________________________________________________
cu_dnnlstm_232 (CuDNNLSTM)   (None, 1, 200)            401600    
_________________________________________________________________
dropout_175 (Dropout)        (None, 1, 200)            0         
_________________________________________________________________
cu_dnnlstm_233 (CuDNNLSTM)   (None, 450)               1173600   
_________________________________________________________________
dense_108 (Dense)            (None, 1)                 451       
_________________________________________________________________
activation_78 (Activation)   (None, 1)                 0         
=================================================================
Total params: 2,218,851
Trainable params: 2,218,851
Non-trainable params: 0
_________________________________________________________________
_________________________________________________________________
Layer (type)                 Output Shape              Param #   
=================================================================
cu_dnnlstm_234 (CuDNNLSTM)   (None, 1, 150)            100800    
_________________________________________________________________
dropout_176 (Dropout)        (None, 1, 150)            0         
_________________________________________________________________
cu_dnnlstm_235 (CuDNNLSTM)   (None, 1, 300)            542400    
_________________________________________________________________
dropout_177 (Dropout)        (None, 1, 300)            0         
_________________________________________________________________
cu_dnnlstm_236 (CuDNNLSTM)   (None, 1, 200)            401600    
_________________________________________________________________
dropout_178 (Dropout)        (None, 1, 200)            0         
_________________________________________________________________
cu_dnnlstm_237 (CuDNNLSTM)   (None, 450)               1173600   
_________________________________________________________________
dense_109 (Dense)            (None, 1)                 451       
_________________________________________________________________
activation_79 (Activation)   (None, 1)                 0         
=================================================================
Total params: 2,218,851
Trainable params: 2,218,851
Non-trainable params: 0
_________________________________________________________________
_________________________________________________________________
Layer (type)                 Output Shape              Param #   
=================================================================
cu_dnnlstm_238 (CuDNNLSTM)   (None, 1, 250)            268000    
_________________________________________________________________
dropout_179 (Dropout)        (None, 1, 250)            0         
_________________________________________________________________
cu_dnnlstm_239 (CuDNNLSTM)   (None, 1, 200)            361600    
_________________________________________________________________
dropout_180 (Dropout)        (None, 1, 200)            0         
_________________________________________________________________
cu_dnnlstm_240 (CuDNNLSTM)   (None, 300)               602400    
_________________________________________________________________
dense_110 (Dense)            (None, 1)                 301       
_________________________________________________________________
activation_80 (Activation)   (None, 1)                 0         
=================================================================
Total params: 1,232,301
Trainable params: 1,232,301
Non-trainable params: 0
_________________________________________________________________
_________________________________________________________________
Layer (type)                 Output Shape              Param #   
=================================================================
dense_111 (Dense)            (None, 12)                204       
_________________________________________________________________
dense_112 (Dense)            (None, 8)                 104       
_________________________________________________________________
dense_113 (Dense)            (None, 1)                 9         
=================================================================
Total params: 317
Trainable params: 317
Non-trainable params: 0
_________________________________________________________________
_________________________________________________________________
Layer (type)                 Output Shape              Param #   
=================================================================
cu_dnnlstm_241 (CuDNNLSTM)   (None, 1, 50)             13600     
_________________________________________________________________
dropout_181 (Dropout)        (None, 1, 50)             0         
_________________________________________________________________
cu_dnnlstm_242 (CuDNNLSTM)   (None, 100)               60800     
_________________________________________________________________
dropout_182 (Dropout)        (None, 100)               0         
_________________________________________________________________
dense_114 (Dense)            (None, 1)                 101       
_________________________________________________________________
activation_81 (Activation)   (None, 1)                 0         
=================================================================
Total params: 74,501
Trainable params: 74,501
Non-trainable params: 0
_________________________________________________________________
_________________________________________________________________
Layer (type)                 Output Shape              Param #   
=================================================================
cu_dnnlstm_243 (CuDNNLSTM)   (None, 1, 50)             13600     
_________________________________________________________________
dropout_183 (Dropout)        (None, 1, 50)             0         
_________________________________________________________________
cu_dnnlstm_244 (CuDNNLSTM)   (None, 100)               60800     
_________________________________________________________________
dropout_184 (Dropout)        (None, 100)               0         
_________________________________________________________________
dense_115 (Dense)            (None, 1)                 101       
_________________________________________________________________
activation_82 (Activation)   (None, 1)                 0         
=================================================================
Total params: 74,501
Trainable params: 74,501
Non-trainable params: 0
_________________________________________________________________
_________________________________________________________________
Layer (type)                 Output Shape              Param #   
=================================================================
cu_dnnlstm_245 (CuDNNLSTM)   (None, 1, 50)             13600     
_________________________________________________________________
dropout_185 (Dropout)        (None, 1, 50)             0         
_________________________________________________________________
cu_dnnlstm_246 (CuDNNLSTM)   (None, 1, 100)            60800     
_________________________________________________________________
dropout_186 (Dropout)        (None, 1, 100)            0         
_________________________________________________________________
cu_dnnlstm_247 (CuDNNLSTM)   (None, 100)               80800     
_________________________________________________________________
dense_116 (Dense)            (None, 1)                 101       
_________________________________________________________________
activation_83 (Activation)   (None, 1)                 0         
=================================================================
Total params: 155,301
Trainable params: 155,301
Non-trainable params: 0
_________________________________________________________________
_________________________________________________________________
Layer (type)                 Output Shape              Param #   
=================================================================
cu_dnnlstm_248 (CuDNNLSTM)   (None, 1, 150)            100800    
_________________________________________________________________
dropout_187 (Dropout)        (None, 1, 150)            0         
_________________________________________________________________
cu_dnnlstm_249 (CuDNNLSTM)   (None, 1, 250)            402000    
_________________________________________________________________
dropout_188 (Dropout)        (None, 1, 250)            0         
_________________________________________________________________
cu_dnnlstm_250 (CuDNNLSTM)   (None, 200)               361600    
_________________________________________________________________
dense_117 (Dense)            (None, 1)                 201       
_________________________________________________________________
activation_84 (Activation)   (None, 1)                 0         
=================================================================
Total params: 864,601
Trainable params: 864,601
Non-trainable params: 0
_________________________________________________________________
_________________________________________________________________
Layer (type)                 Output Shape              Param #   
=================================================================
cu_dnnlstm_251 (CuDNNLSTM)   (None, 1, 150)            100800    
_________________________________________________________________
dropout_189 (Dropout)        (None, 1, 150)            0         
_________________________________________________________________
cu_dnnlstm_252 (CuDNNLSTM)   (None, 1, 300)            542400    
_________________________________________________________________
dropout_190 (Dropout)        (None, 1, 300)            0         
_________________________________________________________________
cu_dnnlstm_253 (CuDNNLSTM)   (None, 200)               401600    
_________________________________________________________________
dense_118 (Dense)            (None, 1)                 201       
_________________________________________________________________
activation_85 (Activation)   (None, 1)                 0         
=================================================================
Total params: 1,045,001
Trainable params: 1,045,001
Non-trainable params: 0
_________________________________________________________________
_________________________________________________________________
Layer (type)                 Output Shape              Param #   
=================================================================
cu_dnnlstm_254 (CuDNNLSTM)   (None, 1, 150)            100800    
_________________________________________________________________
dropout_191 (Dropout)        (None, 1, 150)            0         
_________________________________________________________________
cu_dnnlstm_255 (CuDNNLSTM)   (None, 1, 300)            542400    
_________________________________________________________________
dropout_192 (Dropout)        (None, 1, 300)            0         
_________________________________________________________________
cu_dnnlstm_256 (CuDNNLSTM)   (None, 1, 200)            401600    
_________________________________________________________________
dropout_193 (Dropout)        (None, 1, 200)            0         
_________________________________________________________________
cu_dnnlstm_257 (CuDNNLSTM)   (None, 450)               1173600   
_________________________________________________________________
dense_119 (Dense)            (None, 1)                 451       
_________________________________________________________________
activation_86 (Activation)   (None, 1)                 0         
=================================================================
Total params: 2,218,851
Trainable params: 2,218,851
Non-trainable params: 0
_________________________________________________________________
_________________________________________________________________
Layer (type)                 Output Shape              Param #   
=================================================================
cu_dnnlstm_258 (CuDNNLSTM)   (None, 1, 150)            100800    
_________________________________________________________________
dropout_194 (Dropout)        (None, 1, 150)            0         
_________________________________________________________________
cu_dnnlstm_259 (CuDNNLSTM)   (None, 1, 300)            542400    
_________________________________________________________________
dropout_195 (Dropout)        (None, 1, 300)            0         
_________________________________________________________________
cu_dnnlstm_260 (CuDNNLSTM)   (None, 1, 200)            401600    
_________________________________________________________________
dropout_196 (Dropout)        (None, 1, 200)            0         
_________________________________________________________________
cu_dnnlstm_261 (CuDNNLSTM)   (None, 450)               1173600   
_________________________________________________________________
dense_120 (Dense)            (None, 1)                 451       
_________________________________________________________________
activation_87 (Activation)   (None, 1)                 0         
=================================================================
Total params: 2,218,851
Trainable params: 2,218,851
Non-trainable params: 0
_________________________________________________________________
_________________________________________________________________
Layer (type)                 Output Shape              Param #   
=================================================================
cu_dnnlstm_262 (CuDNNLSTM)   (None, 1, 250)            268000    
_________________________________________________________________
dropout_197 (Dropout)        (None, 1, 250)            0         
_________________________________________________________________
cu_dnnlstm_263 (CuDNNLSTM)   (None, 1, 200)            361600    
_________________________________________________________________
dropout_198 (Dropout)        (None, 1, 200)            0         
_________________________________________________________________
cu_dnnlstm_264 (CuDNNLSTM)   (None, 300)               602400    
_________________________________________________________________
dense_121 (Dense)            (None, 1)                 301       
_________________________________________________________________
activation_88 (Activation)   (None, 1)                 0         
=================================================================
Total params: 1,232,301
Trainable params: 1,232,301
Non-trainable params: 0
_________________________________________________________________
_________________________________________________________________
Layer (type)                 Output Shape              Param #   
=================================================================
dense_122 (Dense)            (None, 12)                204       
_________________________________________________________________
dense_123 (Dense)            (None, 8)                 104       
_________________________________________________________________
dense_124 (Dense)            (None, 1)                 9         
=================================================================
Total params: 317
Trainable params: 317
Non-trainable params: 0
_________________________________________________________________
_________________________________________________________________
Layer (type)                 Output Shape              Param #   
=================================================================
cu_dnnlstm_265 (CuDNNLSTM)   (None, 1, 50)             13600     
_________________________________________________________________
dropout_199 (Dropout)        (None, 1, 50)             0         
_________________________________________________________________
cu_dnnlstm_266 (CuDNNLSTM)   (None, 100)               60800     
_________________________________________________________________
dropout_200 (Dropout)        (None, 100)               0         
_________________________________________________________________
dense_125 (Dense)            (None, 1)                 101       
_________________________________________________________________
activation_89 (Activation)   (None, 1)                 0         
=================================================================
Total params: 74,501
Trainable params: 74,501
Non-trainable params: 0
_________________________________________________________________
_________________________________________________________________
Layer (type)                 Output Shape              Param #   
=================================================================
cu_dnnlstm_267 (CuDNNLSTM)   (None, 1, 50)             13600     
_________________________________________________________________
dropout_201 (Dropout)        (None, 1, 50)             0         
_________________________________________________________________
cu_dnnlstm_268 (CuDNNLSTM)   (None, 100)               60800     
_________________________________________________________________
dropout_202 (Dropout)        (None, 100)               0         
_________________________________________________________________
dense_126 (Dense)            (None, 1)                 101       
_________________________________________________________________
activation_90 (Activation)   (None, 1)                 0         
=================================================================
Total params: 74,501
Trainable params: 74,501
Non-trainable params: 0
_________________________________________________________________
_________________________________________________________________
Layer (type)                 Output Shape              Param #   
=================================================================
cu_dnnlstm_269 (CuDNNLSTM)   (None, 1, 50)             13600     
_________________________________________________________________
dropout_203 (Dropout)        (None, 1, 50)             0         
_________________________________________________________________
cu_dnnlstm_270 (CuDNNLSTM)   (None, 1, 100)            60800     
_________________________________________________________________
dropout_204 (Dropout)        (None, 1, 100)            0         
_________________________________________________________________
cu_dnnlstm_271 (CuDNNLSTM)   (None, 100)               80800     
_________________________________________________________________
dense_127 (Dense)            (None, 1)                 101       
_________________________________________________________________
activation_91 (Activation)   (None, 1)                 0         
=================================================================
Total params: 155,301
Trainable params: 155,301
Non-trainable params: 0
_________________________________________________________________
_________________________________________________________________
Layer (type)                 Output Shape              Param #   
=================================================================
cu_dnnlstm_272 (CuDNNLSTM)   (None, 1, 150)            100800    
_________________________________________________________________
dropout_205 (Dropout)        (None, 1, 150)            0         
_________________________________________________________________
cu_dnnlstm_273 (CuDNNLSTM)   (None, 1, 250)            402000    
_________________________________________________________________
dropout_206 (Dropout)        (None, 1, 250)            0         
_________________________________________________________________
cu_dnnlstm_274 (CuDNNLSTM)   (None, 200)               361600    
_________________________________________________________________
dense_128 (Dense)            (None, 1)                 201       
_________________________________________________________________
activation_92 (Activation)   (None, 1)                 0         
=================================================================
Total params: 864,601
Trainable params: 864,601
Non-trainable params: 0
_________________________________________________________________
_________________________________________________________________
Layer (type)                 Output Shape              Param #   
=================================================================
cu_dnnlstm_275 (CuDNNLSTM)   (None, 1, 150)            100800    
_________________________________________________________________
dropout_207 (Dropout)        (None, 1, 150)            0         
_________________________________________________________________
cu_dnnlstm_276 (CuDNNLSTM)   (None, 1, 300)            542400    
_________________________________________________________________
dropout_208 (Dropout)        (None, 1, 300)            0         
_________________________________________________________________
cu_dnnlstm_277 (CuDNNLSTM)   (None, 200)               401600    
_________________________________________________________________
dense_129 (Dense)            (None, 1)                 201       
_________________________________________________________________
activation_93 (Activation)   (None, 1)                 0         
=================================================================
Total params: 1,045,001
Trainable params: 1,045,001
Non-trainable params: 0
_________________________________________________________________
_________________________________________________________________
Layer (type)                 Output Shape              Param #   
=================================================================
cu_dnnlstm_278 (CuDNNLSTM)   (None, 1, 150)            100800    
_________________________________________________________________
dropout_209 (Dropout)        (None, 1, 150)            0         
_________________________________________________________________
cu_dnnlstm_279 (CuDNNLSTM)   (None, 1, 300)            542400    
_________________________________________________________________
dropout_210 (Dropout)        (None, 1, 300)            0         
_________________________________________________________________
cu_dnnlstm_280 (CuDNNLSTM)   (None, 1, 200)            401600    
_________________________________________________________________
dropout_211 (Dropout)        (None, 1, 200)            0         
_________________________________________________________________
cu_dnnlstm_281 (CuDNNLSTM)   (None, 450)               1173600   
_________________________________________________________________
dense_130 (Dense)            (None, 1)                 451       
_________________________________________________________________
activation_94 (Activation)   (None, 1)                 0         
=================================================================
Total params: 2,218,851
Trainable params: 2,218,851
Non-trainable params: 0
_________________________________________________________________
_________________________________________________________________
Layer (type)                 Output Shape              Param #   
=================================================================
cu_dnnlstm_282 (CuDNNLSTM)   (None, 1, 150)            100800    
_________________________________________________________________
dropout_212 (Dropout)        (None, 1, 150)            0         
_________________________________________________________________
cu_dnnlstm_283 (CuDNNLSTM)   (None, 1, 300)            542400    
_________________________________________________________________
dropout_213 (Dropout)        (None, 1, 300)            0         
_________________________________________________________________
cu_dnnlstm_284 (CuDNNLSTM)   (None, 1, 200)            401600    
_________________________________________________________________
dropout_214 (Dropout)        (None, 1, 200)            0         
_________________________________________________________________
cu_dnnlstm_285 (CuDNNLSTM)   (None, 450)               1173600   
_________________________________________________________________
dense_131 (Dense)            (None, 1)                 451       
_________________________________________________________________
activation_95 (Activation)   (None, 1)                 0         
=================================================================
Total params: 2,218,851
Trainable params: 2,218,851
Non-trainable params: 0
_________________________________________________________________
_________________________________________________________________
Layer (type)                 Output Shape              Param #   
=================================================================
cu_dnnlstm_286 (CuDNNLSTM)   (None, 1, 250)            268000    
_________________________________________________________________
dropout_215 (Dropout)        (None, 1, 250)            0         
_________________________________________________________________
cu_dnnlstm_287 (CuDNNLSTM)   (None, 1, 200)            361600    
_________________________________________________________________
dropout_216 (Dropout)        (None, 1, 200)            0         
_________________________________________________________________
cu_dnnlstm_288 (CuDNNLSTM)   (None, 300)               602400    
_________________________________________________________________
dense_132 (Dense)            (None, 1)                 301       
_________________________________________________________________
activation_96 (Activation)   (None, 1)                 0         
=================================================================
Total params: 1,232,301
Trainable params: 1,232,301
Non-trainable params: 0
_________________________________________________________________
_________________________________________________________________
Layer (type)                 Output Shape              Param #   
=================================================================
dense_133 (Dense)            (None, 12)                204       
_________________________________________________________________
dense_134 (Dense)            (None, 8)                 104       
_________________________________________________________________
dense_135 (Dense)            (None, 1)                 9         
=================================================================
Total params: 317
Trainable params: 317
Non-trainable params: 0
_________________________________________________________________
_________________________________________________________________
Layer (type)                 Output Shape              Param #   
=================================================================
cu_dnnlstm_289 (CuDNNLSTM)   (None, 1, 50)             13600     
_________________________________________________________________
dropout_217 (Dropout)        (None, 1, 50)             0         
_________________________________________________________________
cu_dnnlstm_290 (CuDNNLSTM)   (None, 100)               60800     
_________________________________________________________________
dropout_218 (Dropout)        (None, 100)               0         
_________________________________________________________________
dense_136 (Dense)            (None, 1)                 101       
_________________________________________________________________
activation_97 (Activation)   (None, 1)                 0         
=================================================================
Total params: 74,501
Trainable params: 74,501
Non-trainable params: 0
_________________________________________________________________
_________________________________________________________________
Layer (type)                 Output Shape              Param #   
=================================================================
cu_dnnlstm_291 (CuDNNLSTM)   (None, 1, 50)             13600     
_________________________________________________________________
dropout_219 (Dropout)        (None, 1, 50)             0         
_________________________________________________________________
cu_dnnlstm_292 (CuDNNLSTM)   (None, 100)               60800     
_________________________________________________________________
dropout_220 (Dropout)        (None, 100)               0         
_________________________________________________________________
dense_137 (Dense)            (None, 1)                 101       
_________________________________________________________________
activation_98 (Activation)   (None, 1)                 0         
=================================================================
Total params: 74,501
Trainable params: 74,501
Non-trainable params: 0
_________________________________________________________________
_________________________________________________________________
Layer (type)                 Output Shape              Param #   
=================================================================
cu_dnnlstm_293 (CuDNNLSTM)   (None, 1, 50)             13600     
_________________________________________________________________
dropout_221 (Dropout)        (None, 1, 50)             0         
_________________________________________________________________
cu_dnnlstm_294 (CuDNNLSTM)   (None, 1, 100)            60800     
_________________________________________________________________
dropout_222 (Dropout)        (None, 1, 100)            0         
_________________________________________________________________
cu_dnnlstm_295 (CuDNNLSTM)   (None, 100)               80800     
_________________________________________________________________
dense_138 (Dense)            (None, 1)                 101       
_________________________________________________________________
activation_99 (Activation)   (None, 1)                 0         
=================================================================
Total params: 155,301
Trainable params: 155,301
Non-trainable params: 0
_________________________________________________________________
_________________________________________________________________
Layer (type)                 Output Shape              Param #   
=================================================================
cu_dnnlstm_296 (CuDNNLSTM)   (None, 1, 150)            100800    
_________________________________________________________________
dropout_223 (Dropout)        (None, 1, 150)            0         
_________________________________________________________________
cu_dnnlstm_297 (CuDNNLSTM)   (None, 1, 250)            402000    
_________________________________________________________________
dropout_224 (Dropout)        (None, 1, 250)            0         
_________________________________________________________________
cu_dnnlstm_298 (CuDNNLSTM)   (None, 200)               361600    
_________________________________________________________________
dense_139 (Dense)            (None, 1)                 201       
_________________________________________________________________
activation_100 (Activation)  (None, 1)                 0         
=================================================================
Total params: 864,601
Trainable params: 864,601
Non-trainable params: 0
_________________________________________________________________
_________________________________________________________________
Layer (type)                 Output Shape              Param #   
=================================================================
cu_dnnlstm_299 (CuDNNLSTM)   (None, 1, 150)            100800    
_________________________________________________________________
dropout_225 (Dropout)        (None, 1, 150)            0         
_________________________________________________________________
cu_dnnlstm_300 (CuDNNLSTM)   (None, 1, 300)            542400    
_________________________________________________________________
dropout_226 (Dropout)        (None, 1, 300)            0         
_________________________________________________________________
cu_dnnlstm_301 (CuDNNLSTM)   (None, 200)               401600    
_________________________________________________________________
dense_140 (Dense)            (None, 1)                 201       
_________________________________________________________________
activation_101 (Activation)  (None, 1)                 0         
=================================================================
Total params: 1,045,001
Trainable params: 1,045,001
Non-trainable params: 0
_________________________________________________________________
_________________________________________________________________
Layer (type)                 Output Shape              Param #   
=================================================================
cu_dnnlstm_302 (CuDNNLSTM)   (None, 1, 150)            100800    
_________________________________________________________________
dropout_227 (Dropout)        (None, 1, 150)            0         
_________________________________________________________________
cu_dnnlstm_303 (CuDNNLSTM)   (None, 1, 300)            542400    
_________________________________________________________________
dropout_228 (Dropout)        (None, 1, 300)            0         
_________________________________________________________________
cu_dnnlstm_304 (CuDNNLSTM)   (None, 1, 200)            401600    
_________________________________________________________________
dropout_229 (Dropout)        (None, 1, 200)            0         
_________________________________________________________________
cu_dnnlstm_305 (CuDNNLSTM)   (None, 450)               1173600   
_________________________________________________________________
dense_141 (Dense)            (None, 1)                 451       
_________________________________________________________________
activation_102 (Activation)  (None, 1)                 0         
=================================================================
Total params: 2,218,851
Trainable params: 2,218,851
Non-trainable params: 0
_________________________________________________________________
_________________________________________________________________
Layer (type)                 Output Shape              Param #   
=================================================================
cu_dnnlstm_306 (CuDNNLSTM)   (None, 1, 150)            100800    
_________________________________________________________________
dropout_230 (Dropout)        (None, 1, 150)            0         
_________________________________________________________________
…
Trainable params: 155,301
Non-trainable params: 0
_________________________________________________________________
_________________________________________________________________
Layer (type)                 Output Shape              Param #   
=================================================================
cu_dnnlstm_224 (CuDNNLSTM)   (None, 1, 150)            100800    
_________________________________________________________________
dropout_169 (Dropout)        (None, 1, 150)            0         
_________________________________________________________________
cu_dnnlstm_225 (CuDNNLSTM)   (None, 1, 250)            402000    
_________________________________________________________________
dropout_170 (Dropout)        (None, 1, 250)            0         
_________________________________________________________________
cu_dnnlstm_226 (CuDNNLSTM)   (None, 200)               361600    
_________________________________________________________________
dense_106 (Dense)            (None, 1)                 201       
_________________________________________________________________
activation_76 (Activation)   (None, 1)                 0         
=================================================================
Total params: 864,601
Trainable params: 864,601
Non-trainable params: 0
_________________________________________________________________
_________________________________________________________________
Layer (type)                 Output Shape              Param #   
=================================================================
cu_dnnlstm_227 (CuDNNLSTM)   (None, 1, 150)            100800    
_________________________________________________________________
dropout_171 (Dropout)        (None, 1, 150)            0         
_________________________________________________________________
cu_dnnlstm_228 (CuDNNLSTM)   (None, 1, 300)            542400    
_________________________________________________________________
dropout_172 (Dropout)        (None, 1, 300)            0         
_________________________________________________________________
cu_dnnlstm_229 (CuDNNLSTM)   (None, 200)               401600    
_________________________________________________________________
dense_107 (Dense)            (None, 1)                 201       
_________________________________________________________________
activation_77 (Activation)   (None, 1)                 0         
=================================================================
Total params: 1,045,001
Trainable params: 1,045,001
Non-trainable params: 0
_________________________________________________________________
_________________________________________________________________
Layer (type)                 Output Shape              Param #   
=================================================================
cu_dnnlstm_230 (CuDNNLSTM)   (None, 1, 150)            100800    
_________________________________________________________________
dropout_173 (Dropout)        (None, 1, 150)            0         
_________________________________________________________________
cu_dnnlstm_231 (CuDNNLSTM)   (None, 1, 300)            542400    
_________________________________________________________________
dropout_174 (Dropout)        (None, 1, 300)            0         
_________________________________________________________________
cu_dnnlstm_232 (CuDNNLSTM)   (None, 1, 200)            401600    
_________________________________________________________________
dropout_175 (Dropout)        (None, 1, 200)            0         
_________________________________________________________________
cu_dnnlstm_233 (CuDNNLSTM)   (None, 450)               1173600   
_________________________________________________________________
dense_108 (Dense)            (None, 1)                 451       
_________________________________________________________________
activation_78 (Activation)   (None, 1)                 0         
=================================================================
Total params: 2,218,851
Trainable params: 2,218,851
Non-trainable params: 0
_________________________________________________________________
_________________________________________________________________
Layer (type)                 Output Shape              Param #   
=================================================================
cu_dnnlstm_234 (CuDNNLSTM)   (None, 1, 150)            100800    
_________________________________________________________________
dropout_176 (Dropout)        (None, 1, 150)            0         
_________________________________________________________________
cu_dnnlstm_235 (CuDNNLSTM)   (None, 1, 300)            542400    
_________________________________________________________________
dropout_177 (Dropout)        (None, 1, 300)            0         
_________________________________________________________________
cu_dnnlstm_236 (CuDNNLSTM)   (None, 1, 200)            401600    
_________________________________________________________________
dropout_178 (Dropout)        (None, 1, 200)            0         
_________________________________________________________________
cu_dnnlstm_237 (CuDNNLSTM)   (None, 450)               1173600   
_________________________________________________________________
dense_109 (Dense)            (None, 1)                 451       
_________________________________________________________________
activation_79 (Activation)   (None, 1)                 0         
=================================================================
Total params: 2,218,851
Trainable params: 2,218,851
Non-trainable params: 0
_________________________________________________________________
_________________________________________________________________
Layer (type)                 Output Shape              Param #   
=================================================================
cu_dnnlstm_238 (CuDNNLSTM)   (None, 1, 250)            268000    
_________________________________________________________________
dropout_179 (Dropout)        (None, 1, 250)            0         
_________________________________________________________________
cu_dnnlstm_239 (CuDNNLSTM)   (None, 1, 200)            361600    
_________________________________________________________________
dropout_180 (Dropout)        (None, 1, 200)            0         
_________________________________________________________________
cu_dnnlstm_240 (CuDNNLSTM)   (None, 300)               602400    
_________________________________________________________________
dense_110 (Dense)            (None, 1)                 301       
_________________________________________________________________
activation_80 (Activation)   (None, 1)                 0         
=================================================================
Total params: 1,232,301
Trainable params: 1,232,301
Non-trainable params: 0
_________________________________________________________________
_________________________________________________________________
Layer (type)                 Output Shape              Param #   
=================================================================
dense_111 (Dense)            (None, 12)                204       
_________________________________________________________________
dense_112 (Dense)            (None, 8)                 104       
_________________________________________________________________
dense_113 (Dense)            (None, 1)                 9         
=================================================================
Total params: 317
Trainable params: 317
Non-trainable params: 0
_________________________________________________________________
_________________________________________________________________
Layer (type)                 Output Shape              Param #   
=================================================================
cu_dnnlstm_241 (CuDNNLSTM)   (None, 1, 50)             13600     
_________________________________________________________________
dropout_181 (Dropout)        (None, 1, 50)             0         
_________________________________________________________________
cu_dnnlstm_242 (CuDNNLSTM)   (None, 100)               60800     
_________________________________________________________________
dropout_182 (Dropout)        (None, 100)               0         
_________________________________________________________________
dense_114 (Dense)            (None, 1)                 101       
_________________________________________________________________
activation_81 (Activation)   (None, 1)                 0         
=================================================================
Total params: 74,501
Trainable params: 74,501
Non-trainable params: 0
_________________________________________________________________
_________________________________________________________________
Layer (type)                 Output Shape              Param #   
=================================================================
cu_dnnlstm_243 (CuDNNLSTM)   (None, 1, 50)             13600     
_________________________________________________________________
dropout_183 (Dropout)        (None, 1, 50)             0         
_________________________________________________________________
cu_dnnlstm_244 (CuDNNLSTM)   (None, 100)               60800     
_________________________________________________________________
dropout_184 (Dropout)        (None, 100)               0         
_________________________________________________________________
dense_115 (Dense)            (None, 1)                 101       
_________________________________________________________________
activation_82 (Activation)   (None, 1)                 0         
=================================================================
Total params: 74,501
Trainable params: 74,501
Non-trainable params: 0
_________________________________________________________________
_________________________________________________________________
Layer (type)                 Output Shape              Param #   
=================================================================
cu_dnnlstm_245 (CuDNNLSTM)   (None, 1, 50)             13600     
_________________________________________________________________
dropout_185 (Dropout)        (None, 1, 50)             0         
_________________________________________________________________
cu_dnnlstm_246 (CuDNNLSTM)   (None, 1, 100)            60800     
_________________________________________________________________
dropout_186 (Dropout)        (None, 1, 100)            0         
_________________________________________________________________
cu_dnnlstm_247 (CuDNNLSTM)   (None, 100)               80800     
_________________________________________________________________
dense_116 (Dense)            (None, 1)                 101       
_________________________________________________________________
activation_83 (Activation)   (None, 1)                 0         
=================================================================
Total params: 155,301
Trainable params: 155,301
Non-trainable params: 0
_________________________________________________________________
_________________________________________________________________
Layer (type)                 Output Shape              Param #   
=================================================================
cu_dnnlstm_248 (CuDNNLSTM)   (None, 1, 150)            100800    
_________________________________________________________________
dropout_187 (Dropout)        (None, 1, 150)            0         
_________________________________________________________________
cu_dnnlstm_249 (CuDNNLSTM)   (None, 1, 250)            402000    
_________________________________________________________________
dropout_188 (Dropout)        (None, 1, 250)            0         
_________________________________________________________________
cu_dnnlstm_250 (CuDNNLSTM)   (None, 200)               361600    
_________________________________________________________________
dense_117 (Dense)            (None, 1)                 201       
_________________________________________________________________
activation_84 (Activation)   (None, 1)                 0         
=================================================================
Total params: 864,601
Trainable params: 864,601
Non-trainable params: 0
_________________________________________________________________
_________________________________________________________________
Layer (type)                 Output Shape              Param #   
=================================================================
cu_dnnlstm_251 (CuDNNLSTM)   (None, 1, 150)            100800    
_________________________________________________________________
dropout_189 (Dropout)        (None, 1, 150)            0         
_________________________________________________________________
cu_dnnlstm_252 (CuDNNLSTM)   (None, 1, 300)            542400    
_________________________________________________________________
dropout_190 (Dropout)        (None, 1, 300)            0         
_________________________________________________________________
cu_dnnlstm_253 (CuDNNLSTM)   (None, 200)               401600    
_________________________________________________________________
dense_118 (Dense)            (None, 1)                 201       
_________________________________________________________________
activation_85 (Activation)   (None, 1)                 0         
=================================================================
Total params: 1,045,001
Trainable params: 1,045,001
Non-trainable params: 0
_________________________________________________________________
_________________________________________________________________
Layer (type)                 Output Shape              Param #   
=================================================================
cu_dnnlstm_254 (CuDNNLSTM)   (None, 1, 150)            100800    
_________________________________________________________________
dropout_191 (Dropout)        (None, 1, 150)            0         
_________________________________________________________________
cu_dnnlstm_255 (CuDNNLSTM)   (None, 1, 300)            542400    
_________________________________________________________________
dropout_192 (Dropout)        (None, 1, 300)            0         
_________________________________________________________________
cu_dnnlstm_256 (CuDNNLSTM)   (None, 1, 200)            401600    
_________________________________________________________________
dropout_193 (Dropout)        (None, 1, 200)            0         
_________________________________________________________________
cu_dnnlstm_257 (CuDNNLSTM)   (None, 450)               1173600   
_________________________________________________________________
dense_119 (Dense)            (None, 1)                 451       
_________________________________________________________________
activation_86 (Activation)   (None, 1)                 0         
=================================================================
Total params: 2,218,851
Trainable params: 2,218,851
Non-trainable params: 0
_________________________________________________________________
_________________________________________________________________
Layer (type)                 Output Shape              Param #   
=================================================================
cu_dnnlstm_258 (CuDNNLSTM)   (None, 1, 150)            100800    
_________________________________________________________________
dropout_194 (Dropout)        (None, 1, 150)            0         
_________________________________________________________________
cu_dnnlstm_259 (CuDNNLSTM)   (None, 1, 300)            542400    
_________________________________________________________________
dropout_195 (Dropout)        (None, 1, 300)            0         
_________________________________________________________________
cu_dnnlstm_260 (CuDNNLSTM)   (None, 1, 200)            401600    
_________________________________________________________________
dropout_196 (Dropout)        (None, 1, 200)            0         
_________________________________________________________________
cu_dnnlstm_261 (CuDNNLSTM)   (None, 450)               1173600   
_________________________________________________________________
dense_120 (Dense)            (None, 1)                 451       
_________________________________________________________________
activation_87 (Activation)   (None, 1)                 0         
=================================================================
Total params: 2,218,851
Trainable params: 2,218,851
Non-trainable params: 0
_________________________________________________________________
_________________________________________________________________
Layer (type)                 Output Shape              Param #   
=================================================================
cu_dnnlstm_262 (CuDNNLSTM)   (None, 1, 250)            268000    
_________________________________________________________________
dropout_197 (Dropout)        (None, 1, 250)            0         
_________________________________________________________________
cu_dnnlstm_263 (CuDNNLSTM)   (None, 1, 200)            361600    
_________________________________________________________________
dropout_198 (Dropout)        (None, 1, 200)            0         
_________________________________________________________________
cu_dnnlstm_264 (CuDNNLSTM)   (None, 300)               602400    
_________________________________________________________________
dense_121 (Dense)            (None, 1)                 301       
_________________________________________________________________
activation_88 (Activation)   (None, 1)                 0         
=================================================================
Total params: 1,232,301
Trainable params: 1,232,301
Non-trainable params: 0
_________________________________________________________________
_________________________________________________________________
Layer (type)                 Output Shape              Param #   
=================================================================
dense_122 (Dense)            (None, 12)                204       
_________________________________________________________________
dense_123 (Dense)            (None, 8)                 104       
_________________________________________________________________
dense_124 (Dense)            (None, 1)                 9         
=================================================================
Total params: 317
Trainable params: 317
Non-trainable params: 0
_________________________________________________________________
_________________________________________________________________
Layer (type)                 Output Shape              Param #   
=================================================================
cu_dnnlstm_265 (CuDNNLSTM)   (None, 1, 50)             13600     
_________________________________________________________________
dropout_199 (Dropout)        (None, 1, 50)             0         
_________________________________________________________________
cu_dnnlstm_266 (CuDNNLSTM)   (None, 100)               60800     
_________________________________________________________________
dropout_200 (Dropout)        (None, 100)               0         
_________________________________________________________________
dense_125 (Dense)            (None, 1)                 101       
_________________________________________________________________
activation_89 (Activation)   (None, 1)                 0         
=================================================================
Total params: 74,501
Trainable params: 74,501
Non-trainable params: 0
_________________________________________________________________
_________________________________________________________________
Layer (type)                 Output Shape              Param #   
=================================================================
cu_dnnlstm_267 (CuDNNLSTM)   (None, 1, 50)             13600     
_________________________________________________________________
dropout_201 (Dropout)        (None, 1, 50)             0         
_________________________________________________________________
cu_dnnlstm_268 (CuDNNLSTM)   (None, 100)               60800     
_________________________________________________________________
dropout_202 (Dropout)        (None, 100)               0         
_________________________________________________________________
dense_126 (Dense)            (None, 1)                 101       
_________________________________________________________________
activation_90 (Activation)   (None, 1)                 0         
=================================================================
Total params: 74,501
Trainable params: 74,501
Non-trainable params: 0
_________________________________________________________________
_________________________________________________________________
Layer (type)                 Output Shape              Param #   
=================================================================
cu_dnnlstm_269 (CuDNNLSTM)   (None, 1, 50)             13600     
_________________________________________________________________
dropout_203 (Dropout)        (None, 1, 50)             0         
_________________________________________________________________
cu_dnnlstm_270 (CuDNNLSTM)   (None, 1, 100)            60800     
_________________________________________________________________
dropout_204 (Dropout)        (None, 1, 100)            0         
_________________________________________________________________
cu_dnnlstm_271 (CuDNNLSTM)   (None, 100)               80800     
_________________________________________________________________
dense_127 (Dense)            (None, 1)                 101       
_________________________________________________________________
activation_91 (Activation)   (None, 1)                 0         
=================================================================
Total params: 155,301
Trainable params: 155,301
Non-trainable params: 0
_________________________________________________________________
_________________________________________________________________
Layer (type)                 Output Shape              Param #   
=================================================================
cu_dnnlstm_272 (CuDNNLSTM)   (None, 1, 150)            100800    
_________________________________________________________________
dropout_205 (Dropout)        (None, 1, 150)            0         
_________________________________________________________________
cu_dnnlstm_273 (CuDNNLSTM)   (None, 1, 250)            402000    
_________________________________________________________________
dropout_206 (Dropout)        (None, 1, 250)            0         
_________________________________________________________________
cu_dnnlstm_274 (CuDNNLSTM)   (None, 200)               361600    
_________________________________________________________________
dense_128 (Dense)            (None, 1)                 201       
_________________________________________________________________
activation_92 (Activation)   (None, 1)                 0         
=================================================================
Total params: 864,601
Trainable params: 864,601
Non-trainable params: 0
_________________________________________________________________
_________________________________________________________________
Layer (type)                 Output Shape              Param #   
=================================================================
cu_dnnlstm_275 (CuDNNLSTM)   (None, 1, 150)            100800    
_________________________________________________________________
dropout_207 (Dropout)        (None, 1, 150)            0         
_________________________________________________________________
cu_dnnlstm_276 (CuDNNLSTM)   (None, 1, 300)            542400    
_________________________________________________________________
dropout_208 (Dropout)        (None, 1, 300)            0         
_________________________________________________________________
cu_dnnlstm_277 (CuDNNLSTM)   (None, 200)               401600    
_________________________________________________________________
dense_129 (Dense)            (None, 1)                 201       
_________________________________________________________________
activation_93 (Activation)   (None, 1)                 0         
=================================================================
Total params: 1,045,001
Trainable params: 1,045,001
Non-trainable params: 0
_________________________________________________________________
_________________________________________________________________
Layer (type)                 Output Shape              Param #   
=================================================================
cu_dnnlstm_278 (CuDNNLSTM)   (None, 1, 150)            100800    
_________________________________________________________________
dropout_209 (Dropout)        (None, 1, 150)            0         
_________________________________________________________________
cu_dnnlstm_279 (CuDNNLSTM)   (None, 1, 300)            542400    
_________________________________________________________________
dropout_210 (Dropout)        (None, 1, 300)            0         
_________________________________________________________________
cu_dnnlstm_280 (CuDNNLSTM)   (None, 1, 200)            401600    
_________________________________________________________________
dropout_211 (Dropout)        (None, 1, 200)            0         
_________________________________________________________________
cu_dnnlstm_281 (CuDNNLSTM)   (None, 450)               1173600   
_________________________________________________________________
dense_130 (Dense)            (None, 1)                 451       
_________________________________________________________________
activation_94 (Activation)   (None, 1)                 0         
=================================================================
Total params: 2,218,851
Trainable params: 2,218,851
Non-trainable params: 0
_________________________________________________________________
_________________________________________________________________
Layer (type)                 Output Shape              Param #   
=================================================================
cu_dnnlstm_282 (CuDNNLSTM)   (None, 1, 150)            100800    
_________________________________________________________________
dropout_212 (Dropout)        (None, 1, 150)            0         
_________________________________________________________________
cu_dnnlstm_283 (CuDNNLSTM)   (None, 1, 300)            542400    
_________________________________________________________________
dropout_213 (Dropout)        (None, 1, 300)            0         
_________________________________________________________________
cu_dnnlstm_284 (CuDNNLSTM)   (None, 1, 200)            401600    
_________________________________________________________________
dropout_214 (Dropout)        (None, 1, 200)            0         
_________________________________________________________________
cu_dnnlstm_285 (CuDNNLSTM)   (None, 450)               1173600   
_________________________________________________________________
dense_131 (Dense)            (None, 1)                 451       
_________________________________________________________________
activation_95 (Activation)   (None, 1)                 0         
=================================================================
Total params: 2,218,851
Trainable params: 2,218,851
Non-trainable params: 0
_________________________________________________________________
_________________________________________________________________
Layer (type)                 Output Shape              Param #   
=================================================================
cu_dnnlstm_286 (CuDNNLSTM)   (None, 1, 250)            268000    
_________________________________________________________________
dropout_215 (Dropout)        (None, 1, 250)            0         
_________________________________________________________________
cu_dnnlstm_287 (CuDNNLSTM)   (None, 1, 200)            361600    
_________________________________________________________________
dropout_216 (Dropout)        (None, 1, 200)            0         
_________________________________________________________________
cu_dnnlstm_288 (CuDNNLSTM)   (None, 300)               602400    
_________________________________________________________________
dense_132 (Dense)            (None, 1)                 301       
_________________________________________________________________
activation_96 (Activation)   (None, 1)                 0         
=================================================================
Total params: 1,232,301
Trainable params: 1,232,301
Non-trainable params: 0
_________________________________________________________________
_________________________________________________________________
Layer (type)                 Output Shape              Param #   
=================================================================
dense_133 (Dense)            (None, 12)                204       
_________________________________________________________________
dense_134 (Dense)            (None, 8)                 104       
_________________________________________________________________
dense_135 (Dense)            (None, 1)                 9         
=================================================================
Total params: 317
Trainable params: 317
Non-trainable params: 0
_________________________________________________________________
_________________________________________________________________
Layer (type)                 Output Shape              Param #   
=================================================================
cu_dnnlstm_289 (CuDNNLSTM)   (None, 1, 50)             13600     
_________________________________________________________________
dropout_217 (Dropout)        (None, 1, 50)             0         
_________________________________________________________________
cu_dnnlstm_290 (CuDNNLSTM)   (None, 100)               60800     
_________________________________________________________________
dropout_218 (Dropout)        (None, 100)               0         
_________________________________________________________________
dense_136 (Dense)            (None, 1)                 101       
_________________________________________________________________
activation_97 (Activation)   (None, 1)                 0         
=================================================================
Total params: 74,501
Trainable params: 74,501
Non-trainable params: 0
_________________________________________________________________
_________________________________________________________________
Layer (type)                 Output Shape              Param #   
=================================================================
cu_dnnlstm_291 (CuDNNLSTM)   (None, 1, 50)             13600     
_________________________________________________________________
dropout_219 (Dropout)        (None, 1, 50)             0         
_________________________________________________________________
cu_dnnlstm_292 (CuDNNLSTM)   (None, 100)               60800     
_________________________________________________________________
dropout_220 (Dropout)        (None, 100)               0         
_________________________________________________________________
dense_137 (Dense)            (None, 1)                 101       
_________________________________________________________________
activation_98 (Activation)   (None, 1)                 0         
=================================================================
Total params: 74,501
Trainable params: 74,501
Non-trainable params: 0
_________________________________________________________________
_________________________________________________________________
Layer (type)                 Output Shape              Param #   
=================================================================
cu_dnnlstm_293 (CuDNNLSTM)   (None, 1, 50)             13600     
_________________________________________________________________
dropout_221 (Dropout)        (None, 1, 50)             0         
_________________________________________________________________
cu_dnnlstm_294 (CuDNNLSTM)   (None, 1, 100)            60800     
_________________________________________________________________
dropout_222 (Dropout)        (None, 1, 100)            0         
_________________________________________________________________
cu_dnnlstm_295 (CuDNNLSTM)   (None, 100)               80800     
_________________________________________________________________
dense_138 (Dense)            (None, 1)                 101       
_________________________________________________________________
activation_99 (Activation)   (None, 1)                 0         
=================================================================
Total params: 155,301
Trainable params: 155,301
Non-trainable params: 0
_________________________________________________________________
_________________________________________________________________
Layer (type)                 Output Shape              Param #   
=================================================================
cu_dnnlstm_296 (CuDNNLSTM)   (None, 1, 150)            100800    
_________________________________________________________________
dropout_223 (Dropout)        (None, 1, 150)            0         
_________________________________________________________________
cu_dnnlstm_297 (CuDNNLSTM)   (None, 1, 250)            402000    
_________________________________________________________________
dropout_224 (Dropout)        (None, 1, 250)            0         
_________________________________________________________________
cu_dnnlstm_298 (CuDNNLSTM)   (None, 200)               361600    
_________________________________________________________________
dense_139 (Dense)            (None, 1)                 201       
_________________________________________________________________
activation_100 (Activation)  (None, 1)                 0         
=================================================================
Total params: 864,601
Trainable params: 864,601
Non-trainable params: 0
_________________________________________________________________
_________________________________________________________________
Layer (type)                 Output Shape              Param #   
=================================================================
cu_dnnlstm_299 (CuDNNLSTM)   (None, 1, 150)            100800    
_________________________________________________________________
dropout_225 (Dropout)        (None, 1, 150)            0         
_________________________________________________________________
cu_dnnlstm_300 (CuDNNLSTM)   (None, 1, 300)            542400    
_________________________________________________________________
dropout_226 (Dropout)        (None, 1, 300)            0         
_________________________________________________________________
cu_dnnlstm_301 (CuDNNLSTM)   (None, 200)               401600    
_________________________________________________________________
dense_140 (Dense)            (None, 1)                 201       
_________________________________________________________________
activation_101 (Activation)  (None, 1)                 0         
=================================================================
Total params: 1,045,001
Trainable params: 1,045,001
Non-trainable params: 0
_________________________________________________________________
_________________________________________________________________
Layer (type)                 Output Shape              Param #   
=================================================================
cu_dnnlstm_302 (CuDNNLSTM)   (None, 1, 150)            100800    
_________________________________________________________________
dropout_227 (Dropout)        (None, 1, 150)            0         
_________________________________________________________________
cu_dnnlstm_303 (CuDNNLSTM)   (None, 1, 300)            542400    
_________________________________________________________________
dropout_228 (Dropout)        (None, 1, 300)            0         
_________________________________________________________________
cu_dnnlstm_304 (CuDNNLSTM)   (None, 1, 200)            401600    
_________________________________________________________________
dropout_229 (Dropout)        (None, 1, 200)            0         
_________________________________________________________________
cu_dnnlstm_305 (CuDNNLSTM)   (None, 450)               1173600   
_________________________________________________________________
dense_141 (Dense)            (None, 1)                 451       
_________________________________________________________________
activation_102 (Activation)  (None, 1)                 0         
=================================================================
Total params: 2,218,851
Trainable params: 2,218,851
Non-trainable params: 0
_________________________________________________________________
_________________________________________________________________
Layer (type)                 Output Shape              Param #   
=================================================================
cu_dnnlstm_306 (CuDNNLSTM)   (None, 1, 150)            100800    
_________________________________________________________________
dropout_230 (Dropout)        (None, 1, 150)            0         
_________________________________________________________________
cu_dnnlstm_307 (CuDNNLSTM)   (None, 1, 300)            542400    
_________________________________________________________________
dropout_231 (Dropout)        (None, 1, 300)            0         
_________________________________________________________________
cu_dnnlstm_308 (CuDNNLSTM)   (None, 1, 200)            401600    
_________________________________________________________________
dropout_232 (Dropout)        (None, 1, 200)            0         
_________________________________________________________________
cu_dnnlstm_309 (CuDNNLSTM)   (None, 450)               1173600   
_________________________________________________________________
dense_142 (Dense)            (None, 1)                 451       
_________________________________________________________________
activation_103 (Activation)  (None, 1)                 0         
=================================================================
Total params: 2,218,851
Trainable params: 2,218,851
Non-trainable params: 0
_________________________________________________________________
_________________________________________________________________
Layer (type)                 Output Shape              Param #   
=================================================================
cu_dnnlstm_310 (CuDNNLSTM)   (None, 1, 250)            268000    
_________________________________________________________________
dropout_233 (Dropout)        (None, 1, 250)            0         
_________________________________________________________________
cu_dnnlstm_311 (CuDNNLSTM)   (None, 1, 200)            361600    
_________________________________________________________________
dropout_234 (Dropout)        (None, 1, 200)            0         
_________________________________________________________________
cu_dnnlstm_312 (CuDNNLSTM)   (None, 300)               602400    
_________________________________________________________________
dense_143 (Dense)            (None, 1)                 301       
_________________________________________________________________
activation_104 (Activation)  (None, 1)                 0         
=================================================================
Total params: 1,232,301
Trainable params: 1,232,301
Non-trainable params: 0
_________________________________________________________________
_________________________________________________________________
Layer (type)                 Output Shape              Param #   
=================================================================
dense_144 (Dense)            (None, 12)                204       
_________________________________________________________________
dense_145 (Dense)            (None, 8)                 104       
_________________________________________________________________
dense_146 (Dense)            (None, 1)                 9         
=================================================================
Total params: 317
Trainable params: 317
Non-trainable params: 0
_________________________________________________________________
_________________________________________________________________
Layer (type)                 Output Shape              Param #   
=================================================================
cu_dnnlstm_313 (CuDNNLSTM)   (None, 1, 50)             13600     
_________________________________________________________________
dropout_235 (Dropout)        (None, 1, 50)             0         
_________________________________________________________________
cu_dnnlstm_314 (CuDNNLSTM)   (None, 100)               60800     
_________________________________________________________________
dropout_236 (Dropout)        (None, 100)               0         
_________________________________________________________________
dense_147 (Dense)            (None, 1)                 101       
_________________________________________________________________
activation_105 (Activation)  (None, 1)                 0         
=================================================================
Total params: 74,501
Trainable params: 74,501
Non-trainable params: 0
_________________________________________________________________
_________________________________________________________________
Layer (type)                 Output Shape              Param #   
=================================================================
cu_dnnlstm_315 (CuDNNLSTM)   (None, 1, 50)             13600     
_________________________________________________________________
dropout_237 (Dropout)        (None, 1, 50)             0         
_________________________________________________________________
cu_dnnlstm_316 (CuDNNLSTM)   (None, 100)               60800     
_________________________________________________________________
dropout_238 (Dropout)        (None, 100)               0         
_________________________________________________________________
dense_148 (Dense)            (None, 1)                 101       
_________________________________________________________________
activation_106 (Activation)  (None, 1)                 0         
=================================================================
Total params: 74,501
Trainable params: 74,501
Non-trainable params: 0
_________________________________________________________________
_________________________________________________________________
Layer (type)                 Output Shape              Param #   
=================================================================
cu_dnnlstm_317 (CuDNNLSTM)   (None, 1, 50)             13600     
_________________________________________________________________
dropout_239 (Dropout)        (None, 1, 50)             0         
_________________________________________________________________
cu_dnnlstm_318 (CuDNNLSTM)   (None, 1, 100)            60800     
_________________________________________________________________
dropout_240 (Dropout)        (None, 1, 100)            0         
_________________________________________________________________
cu_dnnlstm_319 (CuDNNLSTM)   (None, 100)               80800     
_________________________________________________________________
dense_149 (Dense)            (None, 1)                 101       
_________________________________________________________________
activation_107 (Activation)  (None, 1)                 0         
=================================================================
Total params: 155,301
Trainable params: 155,301
Non-trainable params: 0
_________________________________________________________________
_________________________________________________________________
Layer (type)                 Output Shape              Param #   
=================================================================
cu_dnnlstm_320 (CuDNNLSTM)   (None, 1, 150)            100800    
_________________________________________________________________
dropout_241 (Dropout)        (None, 1, 150)            0         
_________________________________________________________________
cu_dnnlstm_321 (CuDNNLSTM)   (None, 1, 250)            402000    
_________________________________________________________________
dropout_242 (Dropout)        (None, 1, 250)            0         
_________________________________________________________________
cu_dnnlstm_322 (CuDNNLSTM)   (None, 200)               361600    
_________________________________________________________________
dense_150 (Dense)            (None, 1)                 201       
_________________________________________________________________
activation_108 (Activation)  (None, 1)                 0         
=================================================================
Total params: 864,601
Trainable params: 864,601
Non-trainable params: 0
_________________________________________________________________
_________________________________________________________________
Layer (type)                 Output Shape              Param #   
=================================================================
cu_dnnlstm_323 (CuDNNLSTM)   (None, 1, 150)            100800    
_________________________________________________________________
dropout_243 (Dropout)        (None, 1, 150)            0         
_________________________________________________________________
cu_dnnlstm_324 (CuDNNLSTM)   (None, 1, 300)            542400    
_________________________________________________________________
dropout_244 (Dropout)        (None, 1, 300)            0         
_________________________________________________________________
cu_dnnlstm_325 (CuDNNLSTM)   (None, 200)               401600    
_________________________________________________________________
dense_151 (Dense)            (None, 1)                 201       
_________________________________________________________________
activation_109 (Activation)  (None, 1)                 0         
=================================================================
Total params: 1,045,001
Trainable params: 1,045,001
Non-trainable params: 0
_________________________________________________________________
_________________________________________________________________
Layer (type)                 Output Shape              Param #   
=================================================================
cu_dnnlstm_326 (CuDNNLSTM)   (None, 1, 150)            100800    
_________________________________________________________________
dropout_245 (Dropout)        (None, 1, 150)            0         
_________________________________________________________________
cu_dnnlstm_327 (CuDNNLSTM)   (None, 1, 300)            542400    
_________________________________________________________________
dropout_246 (Dropout)        (None, 1, 300)            0         
_________________________________________________________________
cu_dnnlstm_328 (CuDNNLSTM)   (None, 1, 200)            401600    
_________________________________________________________________
dropout_247 (Dropout)        (None, 1, 200)            0         
_________________________________________________________________
cu_dnnlstm_329 (CuDNNLSTM)   (None, 450)               1173600   
_________________________________________________________________
dense_152 (Dense)            (None, 1)                 451       
_________________________________________________________________
activation_110 (Activation)  (None, 1)                 0         
=================================================================
Total params: 2,218,851
Trainable params: 2,218,851
Non-trainable params: 0
_________________________________________________________________
_________________________________________________________________
Layer (type)                 Output Shape              Param #   
=================================================================
cu_dnnlstm_330 (CuDNNLSTM)   (None, 1, 150)            100800    
_________________________________________________________________
dropout_248 (Dropout)        (None, 1, 150)            0         
_________________________________________________________________
cu_dnnlstm_331 (CuDNNLSTM)   (None, 1, 300)            542400    
_________________________________________________________________
dropout_249 (Dropout)        (None, 1, 300)            0         
_________________________________________________________________
cu_dnnlstm_332 (CuDNNLSTM)   (None, 1, 200)            401600    
_________________________________________________________________
dropout_250 (Dropout)        (None, 1, 200)            0         
_________________________________________________________________
cu_dnnlstm_333 (CuDNNLSTM)   (None, 450)               1173600   
_________________________________________________________________
dense_153 (Dense)            (None, 1)                 451       
_________________________________________________________________
activation_111 (Activation)  (None, 1)                 0         
=================================================================
Total params: 2,218,851
Trainable params: 2,218,851
Non-trainable params: 0
_________________________________________________________________
